saved_models/networked_RENs_checkpoint.pt (torch, 76779 bytes, 60 tensors)

diag_params f4 [3]
000000 51 8a 05 c0 4d 26 2f c0 b1 4c 18 40
       -2.0865672 -2.7367127 2.3796809

s f4 [3]
000000 0e 73 39 bf c7 e2 55 3e f9 6e 10 bf
       -0.72441185 0.2088729 -0.5641933

params f4 [3]
000000 44 41 9a 3e b9 dc d0 3f 1c 96 08 c0
       0.3012792 1.6317359 -2.134162

r.0.x0 f4 [1, 10]
000000 61 92 ac bb 34 9a f8 bb b4 2c f9 bb b4 be 8d 3b
       -0.005266473 -0.007586742 -0.007604206 0.004325712
000010 a2 6b 6c ba a0 e3 73 3c c9 06 21 ba 46 a2 a1 ba
       -0.0009018724 0.014885813 -0.00061426737 -0.0012331686
000020 b0 22 b9 39 5e f7 5a 3c
       0.00035311794 0.013364641

r.0.X f4 [30, 30]
000000 a6 bf ca be 50 cc 93 bf d7 5d 88 3f f5 c3 3a 3f
       -0.3959934 -1.1546726 1.0653638 0.72955257
000010 e8 40 1a 3f f3 89 30 bf b0 d3 1b 3f 7b 36 17 3f
       0.6025529 -0.68960494 0.60869884 0.59067506
000020 d7 67 3c 3f ed 4a e0 be 3c 71 83 bf 2d 51 37 40
       0.7359595 -0.43807164 -1.0268931 2.8643296
000030 bb de ce 3e 86 d5 46 bf a9 e5 86 3f 79 dc 22 be
       0.40404305 -0.7766956 1.0538837 -0.15904416
000040 87 5b e8 3f fe 47 0b 3e 96 f9 fe bf 45 75 a2 3d
       1.8152932 0.13601682 -1.9919918 0.07932524
000050 61 bf 35 3f ea 11 41 3f 2b df 1c 3f ee e2 8c 3e
       0.70995146 0.7541796 0.6127803 0.27516884
000060 35 2e 16 bf f1 55 df 3e 50 04 39 bf f8 9c 87 be
       -0.58664256 0.43620256 -0.72272205 -0.26486945
000070 74 e3 35 bf bf bd a1 3e 06 29 b9 3e a2 18 2f be
       -0.7105019 0.31590077 0.3616411 -0.1709924
000080 5d ce 39 3f 8f 10 53 3e f7 05 b5 3e 8a 05 9a be
       0.7258051 0.20611785 0.35356113 -0.3008235
000090 96 08 04 3f cf ce 89 bf c0 6b a0 bf 97 5e a5 be
       0.515756 -1.0766238 -1.2532883 -0.3229873
0000a0 c4 9c d9 bf 16 05 2c 40 f5 e9 2c be ca 3b 91 be
       -1.7000966 2.6878104 -0.16886123 -0.28365928
0000b0 ee 6a 14 c0 cc c8 f2 be df 64 88 40 92 fb a9 3e
       -2.3190265 -0.4741882 4.2623134 0.33199745
0000c0 b3 66 2e bf ac 39 44 bf 50 9f 92 3e 62 e0 04 3e
       -0.68125457 -0.766505 0.2863717 0.1297622
0000d0 54 03 5c bf 0b d3 73 bf 3e 5b 74 be ff 5c b9 bd
       -0.8594258 -0.952439 -0.23862931 -0.09050941
0000e0 ed 65 05 bf b4 6d 5b 3f 27 27 87 3f 74 9e 7d bf
       -0.5210865 0.8571427 1.0558823 -0.99069905
0000f0 5d c1 05 3f 8a 2f 36 3f 6c 43 e0 bf 7d c3 fe be
       0.52248174 0.7116629 -1.7520576 -0.4975852
000100 c2 64 d4 be da 12 04 3f 7f dc 7a bf 75 a6 57 bf
       -0.41483122 0.51591265 -0.979927 -0.8423837
000110 a9 c8 02 bf ce d6 df 3e b7 68 dd bf 84 37 5b 40
       -0.51087433 0.4371857 -1.7297581 3.4252634
000120 91 82 dc bf 9d dc 37 40 b2 3d 20 3f 50 c0 91 be
       -1.7227346 2.8728402 0.6259414 -0.28467035
000130 30 24 00 c0 8c 97 13 3e 54 91 d0 b8 02 82 1c bf
       -2.0022087 0.1441328 -9.945282e-05 -0.61135876
000140 ed 49 d2 bf bd 78 3b 40 ef b4 dd bd 47 8a 9c 3e
       -1.642881 2.9292443 -0.10825526 0.30574247
000150 e3 3e fb 3e cf a4 78 3d 2e f5 6f 3f 17 9e ff 3d
       0.49071416 0.06070405 0.9373349 0.12481325
000160 e5 39 69 3e 3d ab 3b be 1b 60 b2 3f 50 d7 22 3f
       0.22775991 -0.18327041 1.3935579 0.6360979
000170 ba 37 2d 3f 70 aa 60 3f 93 a5 89 bf ef aa 81 bd
       0.67663157 0.87760067 -1.0753654 -0.06331431
000180 4b b9 06 bf a6 2a a0 3d bc 38 16 bf 50 b0 47 40
       -0.52626485 0.078206345 -0.5868032 3.1201363
000190 e3 a2 6a 40 e8 c3 91 bf 68 3f df 3e 05 e1 db 3f
       3.6661918 -1.1387911 0.43603063 1.7178046
0001a0 71 22 7c 3f 25 cc 20 3f 90 5d 86 c0 63 2f a1 3e
       0.98490053 0.628115 -4.198921 0.31481466
0001b0 0c b4 8a 40 db 24 8d 3b d8 13 2d 3e 1a 56 35 bf
       4.3344784 0.004307372 0.16902101 -0.70834506
0001c0 b7 7c 68 3e eb 43 11 bf 39 a0 29 bf d1 4d 0d 3f
       0.22703825 -0.5674426 -0.66260105 0.55196863
0001d0 43 d5 00 40 ce d0 2b 3f 27 24 21 3f ee d9 fb 3f
       2.0130165 0.67115486 0.6294579 1.9675882
0001e0 75 b2 6e bf 3f 16 4a bf 7d 3e 92 be 60 22 4f 3f
       -0.93241054 -0.78940195 -0.285633 0.8091183
0001f0 86 b1 89 3e e4 bd 77 bd 0e 7b 21 3f c0 3f 32 3f
       0.26893252 -0.06048383 0.6307839 0.69628525
000200 84 f9 21 3f fb eb 93 3d 73 f6 a2 3f 8d 99 13 c0
       0.63271356 0.07222744 1.273146 -2.306247
000210 29 89 ac 3f 13 e0 0e bf 14 7e 22 bf 8d 24 18 bf
       1.3479358 -0.5581066 -0.6347363 -0.5943077
000220 71 02 a9 bf 4f 93 ba bd 10 34 16 40 a8 42 50 bf
       -1.320387 -0.09110128 2.3469276 -0.8135171
000230 c3 ac bb 3f e4 af c2 bf 4f d2 d0 be af 83 89 bf
       1.4662098 -1.5209928 -0.40785453 -1.0743312
000240 6a e1 3b be 70 19 aa bd 9a 11 85 bf 87 91 00 bf
       -0.18347707 -0.08305633 -1.0395997 -0.5022206
000250 e8 54 97 3b ae b1 f8 be 91 1a 11 3f 1e 87 12 3e
       0.004618276 -0.4857306 0.5668116 0.14309356
000260 c3 39 3f 3f 9d f8 62 bf c7 5a e0 be 9a 34 88 3f
       0.7469751 -0.88660604 -0.43819258 1.0641053
000270 42 e4 00 bf 50 84 4c bf 35 14 c2 be 73 0d 01 3f
       -0.50348294 -0.7988939 -0.37906042 0.50411147
000280 6d 4e 94 3f bc 44 52 c0 36 eb 0a be 4e 5e d4 3e
       1.1586434 -3.2854452 -0.13566288 0.414782
000290 5f 16 33 bf 37 78 49 be d3 3d eb bf b2 27 7e be
       -0.6995601 -0.19674765 -1.8378242 -0.2481983
0002a0 19 be 3e 40 52 88 41 bf 91 fd 9a be e8 74 61 bf
       2.9803526 -0.75598633 -0.3027158 -0.8806901
0002b0 29 5f 39 bf f0 6e 50 3e b9 ab cf 3e 0e fe 07 bf
       -0.7241083 0.2035482 0.405607 -0.5312203
0002c0 04 29 61 3f e0 32 27 3f 2d 4f 08 3f 98 e6 b4 be
       0.8795321 0.65312004 0.5324581 -0.3533218
0002d0 a8 c6 26 3f 4b aa 49 3f 6f 25 22 3f 56 a4 29 bf
       0.65146875 0.7877547 0.6333837 -0.6626638
0002e0 e7 c3 02 bf bd b0 98 be 79 2d 0b bf 5d d9 27 be
       -0.51080173 -0.2982234 -0.5436626 -0.16391511
0002f0 4b cd 8d bf a0 08 f9 be ce 55 36 3f 8b 8e 8b 3f
       -1.1078275 -0.48639393 0.7122468 1.0902876
000300 c2 5c 82 3e e9 c4 dc 3d 06 6d bb bf fc e5 4e c0
       0.25461394 0.10779745 -1.4642646 -3.2327871
000310 fc 57 86 3e 73 5f 54 3f c0 c9 4e bf 2a 5a e4 bf
       0.26239002 0.82958144 -0.80776596 -1.7840016
000320 ac 61 02 bf cb 1f d7 be 3c 67 29 bf f1 f8 6d be
       -0.50930285 -0.42016444 -0.6617315 -0.23239495
000330 f9 1d e6 bc bc 36 0e be bc 4f 52 3e ec 45 18 3f
       -0.028090464 -0.13888067 0.20538229 0.5948169
000340 82 3f b1 3f f8 1d 86 3f af 03 17 3f 7d e7 1a 3f
       1.3847506 1.0477896 0.58989996 0.60509473
000350 69 fc 3c bf 94 8c d4 be 84 9a 31 bf 80 67 2b 3f
       -0.7382265 -0.41513503 -0.693764 0.66954803
000360 76 61 0d bf 91 ab a4 be 43 1a bb be a4 42 67 3f
       -0.5522684 -0.32162145 -0.36543474 0.9033606
000370 53 dd 04 40 88 92 25 c0 60 b4 c5 be e7 ee 49 3f
       2.0760086 -2.5870686 -0.38614178 0.7888016
000380 dc a2 58 be 6d fc 28 c0 87 a0 1c c0 6b e7 be 3e
       -0.21155876 -2.6404068 -2.4472978 0.37285933
000390 b3 50 3f 40 8c 8b 37 c0 1d 7b da be 4a 90 10 3e
       2.9893005 -2.8678923 -0.42672053 0.14117542
0003a0 f7 c5 22 bf 32 5b aa 3e ec 0f b8 3e 7f 1c 62 bf
       -0.6358332 0.33272702 0.35949647 -0.8832473
0003b0 d2 af 65 3f 5f 28 50 3f bc ca 3c 3f 73 c5 fd be
       0.89721406 0.813116 0.7374685 -0.49564704
0003c0 5d fb 94 3e f2 ff 81 be 4a 04 df bd 8a f2 00 bf
       0.29098025 -0.25390583 -0.1088949 -0.50370085
0003d0 8f 42 55 3f 4e e1 56 3f 93 79 3f bf 7b bd a5 bf
       0.83304685 0.8393754 -0.7479488 -1.294845
0003e0 34 07 4c bc dd 7e d9 be a8 50 28 bf 38 21 82 3d
       -0.012452889 -0.42479602 -0.6574807 0.06353992
0003f0 07 9d 90 be e5 2b e6 3e 82 44 3c bf 32 dc 08 3e
       -0.28244802 0.44955364 -0.73542035 0.13365248

r.0.Y f4 [10, 10]
000000 38 e9 06 bc 92 04 33 3f c8 90 0c 3f 2d f7 2b 3f
       -0.008234315 0.6992885 0.5490842 0.67174035
000010 59 47 1d 3f c2 33 3c be ed c8 00 3f 12 1b 91 be
       0.6143699 -0.18379119 0.5030659 -0.28340966
000020 26 96 21 3f 04 9b d6 be 0a 09 33 bf fa ce 0e 3b
       0.63119733 -0.41915143 -0.6993567 0.0021790848
000030 a8 54 b1 3e 88 8d 65 3f 3d 52 07 3f d7 a3 12 bf
       0.346349 0.89669085 0.5285986 -0.5728125
000040 57 33 11 3f a1 af 1b 3f d1 54 12 3f 44 50 b3 be
       0.56718963 0.60814863 0.5716067 -0.35022175
000050 a7 f9 0f bf ca c9 a9 be b9 9d 31 ba 4a 76 05 3f
       -0.56240314 -0.33161765 -0.00067755167 0.5213362
000060 bd 43 23 3f 12 73 d4 be 89 6c 15 3f 7a 52 2f 3f
       0.63775235 -0.41494042 0.58368737 0.68485224
000070 aa a7 11 3f 59 e1 29 bf c2 cf 2b bf 34 87 66 bf
       0.5689646 -0.6635948 -0.6711389 -0.90050054
000080 17 ef 02 bf a0 35 b6 3b 03 ff 20 3f da 6a 17 bf
       -0.5114607 0.005560592 0.62889117 -0.5914742
000090 5d 69 28 3f 77 82 c8 3e d1 4d 05 3f 12 dd 2a bf
       0.6578577 0.39162037 0.52071863 -0.66743577
0000a0 bc 6a 23 bf dc 7d 03 bf 18 df 1f bf f7 46 20 bf
       -0.6383474 -0.5136392 -0.6244979 -0.62608284
0000b0 3e 1c 41 bc 67 02 6a bf 4e bf f0 3e 8c 9f 2b 3f
       -0.011786519 -0.91409916 0.47020954 0.67040324
0000c0 76 42 5a bb e7 4f fa 3e da db 3c 3e c6 68 10 3f
       -0.0033303774 0.48889086 0.18443242 0.5640987
0000d0 15 92 d3 3e ae 41 11 3f 72 b5 68 3f bb 3c ca 3a
       0.4132239 0.56740844 0.90901864 0.0015429476
0000e0 ca 2f 92 bf d7 52 1d bf 26 3a c2 be a2 b5 9c be
       -1.1420834 -0.6145453 -0.3793499 -0.30607325
0000f0 17 08 02 bf f2 37 15 bf 22 84 19 bf e1 d1 28 bf
       -0.50793594 -0.5828849 -0.59967244 -0.6594525
000100 64 14 f2 be 78 f0 8c 3f f3 4b 4f bb 26 59 21 3f
       -0.47281182 1.1010885 -0.0031630963 0.63026655
000110 65 5e 1e bf 01 3e 06 3f de 84 88 3e 9b 9c 1f bf
       -0.61862785 0.5243836 0.2666387 -0.62348336
000120 3d aa 2d bf 88 3b c0 be fd 5f 26 bf 41 bf 20 3f
       -0.6783789 -0.3754542 -0.64990216 0.6279183
000130 ea 42 21 bf 33 c7 ea bb 26 73 f0 be d8 a0 56 3f
       -0.6299273 -0.0071648597 -0.4696285 0.8383918
000140 52 1a 24 bf 74 04 1b bf d4 30 17 bf 67 11 0a bf
       -0.6410266 -0.6055367 -0.5905888 -0.53932804
000150 08 3c 0e bc 16 be c2 3e 6f 84 20 3f b0 a7 ea 3e
       -0.008681305 0.3803565 0.6270208 0.4583106
000160 b7 96 2e 3c 8e 72 21 3f 9f 4c df 3e ee 74 b9 3e
       0.01065605 0.6306542 0.43613145 0.36222023
000170 d5 1c 28 3f 4d 2a 29 3f 82 2c fd be 06 77 99 3e
       0.65668994 0.6608017 -0.4944802 0.2997362
000180 db c6 05 bf 29 2f 55 bf 79 b4 1e bf 76 4d 9c 3a
       -0.52256554 -0.83275086 -0.6199413 0.0011924941

r.0.D12 f4 [10, 2]
000000 ac 38 72 c0 a7 d4 c3 40 9c 20 af 40 f2 ea 7d bf
       -3.784709 6.1197085 5.4727306 -0.99186623
000010 9c ab 3f c0 b2 77 23 40 e3 e5 29 3f ad f1 21 40
       -2.9948492 2.5541806 0.66366404 2.5303757
000020 7f 7a 4a bf 35 6a ad bf ed 59 bb bf 85 f5 17 c0
       -0.79093164 -1.3548037 -1.4636818 -2.3743603
000030 8d a1 9e c0 bf fc 22 40 a1 d9 0c c1 d9 0c 82 bf
       -4.9572206 2.5466764 -8.803132 -1.0160171
000040 ca e4 07 40 84 74 7c 3f 79 09 eb be f8 7d 83 c0
       2.1233392 0.9861529 -0.45905665 -4.109127

r.0.B2 f4 [10, 2]
000000 52 96 02 bf b6 b7 89 bf 0e 70 36 bf 10 8a 50 bf
       -0.5101062 -1.0759189 -0.7126473 -0.81460667
000010 a6 aa 18 bf 5b 3b 0e bf f2 a2 40 bf cb ba 10 bf
       -0.5963539 -0.5555932 -0.75248635 -0.56535023
000020 fa 84 0b 3f 6c 23 ac 3f fb 11 c6 be e7 7b 2d be
       0.5449978 1.344831 -0.38685593 -0.16941796
000030 59 bd 11 3f 3b 99 24 3f f5 27 30 3f 5b 51 1c bd
       0.56929547 0.6429631 0.6881097 -0.038163524
000040 a0 61 ea 3e 57 fe 1a 3f 51 2b 15 3e 63 eb 1e 3f
       0.45777607 0.6054434 0.14567305 0.6207792

r.0.C2 f4 [1, 10]
000000 db 7b 44 3f 99 d7 0e bf ab 25 01 bf 10 dd 3a bf
       0.7675149 -0.55797726 -0.504481 -0.72993565
000010 99 ac f2 be ac a7 3f 3f 10 48 c2 be a4 80 1f 3f
       -0.47397307 0.7486522 -0.37945604 0.62305665
000020 4c eb 4d bf c3 81 b3 3e
       -0.8043716 0.35059938

r.1.x0 f4 [1, 10]
000000 37 cc 66 bb 6e d7 05 3b 00 4b 21 3c dc 92 85 3b
       -0.0035216936 0.0020422596 0.009844542 0.004076345
000010 26 a1 90 3a 45 62 e9 3b 29 d1 f4 3b b5 2b 8d bb
       0.0011034354 0.0071223103 0.007471223 -0.004308189
000020 52 46 c3 3b 1b 0c a8 3b
       0.0059593106 0.005128396

r.1.X f4 [30, 30]
000000 5e ea 91 3f 69 f2 02 3e db 86 c1 bf 3a cb 38 bf
       1.1399648 0.12787785 -1.511928 -0.721851
000010 06 13 d5 bd 0d 38 e2 3d e0 21 a8 bf 26 00 9e 3f
       -0.10404019 0.11045847 -1.3135338 1.2343795
000020 8e ae d7 3d 88 35 a7 3f 50 18 88 3f 9d 30 53 be
       0.105313405 1.3063211 1.063242 -0.20624013
000030 d2 f3 4c 3f fe 6a a3 3f 57 60 44 bf ba 33 b7 bd
       0.8005954 1.2767026 -0.767095 -0.08945413
000040 17 c4 d1 3c ce 3d 81 3f 16 57 94 3f e5 f6 4b 3f
       0.025606198 1.0096986 1.1589077 0.79673606
000050 f0 b1 33 bf c2 d3 02 3f 2e fe c8 be 85 47 0d 40
       -0.70193386 0.51104367 -0.39256424 2.2074902
000060 a8 2b a3 bf 92 15 f1 be d6 50 82 3e cf 97 3a bf
       -1.2747698 -0.4708677 0.25452298 -0.7288789
000070 31 db 44 bf 92 c3 9f 3f 6e cd 81 be b8 90 e7 3d
       -0.7689696 1.2481558 -0.25352043 0.113069
000080 e9 b2 3b bb 86 fe 9d 3f 54 62 2d 3f 8b 1c 0b bf
       -0.0028640574 1.2343299 0.6772816 -0.5434043
000090 5c d5 ca bb 69 0c b4 be ef 45 86 3f 28 3d bd bf
       -0.006189985 -0.35165718 1.0490092 -1.4784288
0000a0 c0 fb 9c bd e8 a5 8c 3e 01 0c 9a bf 7c 1f f2 3f
       -0.07665205 0.27470326 -1.2034913 1.8915858
0000b0 a8 d0 b0 bd 9d 21 de be b3 db ab be 04 9f be bf
       -0.08633548 -0.4338502 -0.33566055 -1.4892278
0000c0 aa 24 63 3e cc bf cc 3d cc f1 2b 3f 7b b5 78 3e
       0.22181955 0.0999752 0.6716583 0.2428798
0000d0 7d d9 dd be fc 37 14 bf 10 5a 53 c0 d2 fa 5c 3e
       -0.43329993 -0.57897925 -3.302372 0.21580055
0000e0 37 5f b0 3e 0d 14 cc 3e 30 ae 31 3e ba 4b dd 3f
       0.34447643 0.39859048 0.17351604 1.7288735
0000f0 c1 f2 90 be 2b 43 2f bb 34 fc f1 be bd 9d 8f bf
       -0.28310207 -0.0026742916 -0.47262728 -1.1220013
000100 5f b8 ea 3d 8f a2 09 c0 45 7d a3 3f 96 3e 0c bf
       0.11460947 -2.1505468 1.2772604 -0.54783
000110 1f 78 f5 be 8c 15 b4 bf 63 4f ab 3f 66 1c d2 3e
       -0.47943208 -1.4069076 1.3383602 0.4103729
000120 80 b3 dd bc 28 0c c3 be 66 8a 62 bf 44 94 f0 be
       -0.027063131 -0.38095212 -0.8849243 -0.46988118
000130 2b 82 3b 3f 3d d8 7a bf 4a c6 bb bf b8 0a 6e bf
       0.73245496 -0.97986203 -1.4669888 -0.92985106
000140 af 9c 90 bf 1f d0 9b bf 95 b7 c3 3f ef 0d 2d c0
       -1.1297816 -1.2172889 1.52904 -2.7039754
000150 4e 24 b8 bf 9b ca 4d 3f 2b 32 ae 3e 99 31 96 3f
       -1.4386079 0.80387276 0.3402265 1.1733886
000160 72 f8 3d bf 62 c9 52 3f 33 bc c8 bf d4 ce a7 3e
       -0.7420722 0.82338536 -1.5682434 0.32774985
000170 c3 e9 df 3f 22 3e 2d 3e a7 ac bd bd 21 7e 85 3f
       1.7493213 0.16918233 -0.092614464 1.0429116
000180 c6 56 57 bd 12 8c e1 3e 2e 62 9d 3f fe 32 55 bf
       -0.052572988 0.44052178 1.2295587 -0.8328093
000190 ee e9 17 40 4a 3d cc 3e 80 e2 d4 bf f9 f4 f1 bd
       2.373653 0.3989051 -1.6631622 -0.11814303
0001a0 be 47 32 bf b4 fe 60 bf a5 11 b1 3f 10 8f f6 3d
       -0.6964072 -0.87888646 1.383351 0.12039006
0001b0 ff 74 a2 bf 60 19 1b c0 7f 85 c8 bf 08 e4 ac bf
       -1.2691954 -2.4234238 -1.566574 -1.350709
0001c0 31 56 68 bf ae b4 16 bf 14 bc e2 be e3 9a 77 bf
       -0.9075652 -0.58869445 -0.44284117 -0.96720713
0001d0 1a b5 0c 3f 5f d7 92 bf 81 a8 ad bf 1e 54 82 3f
       0.5496384 -1.1471976 -1.3567048 1.018192
0001e0 9f 77 a1 bf 2c 4d 22 3f 2c 52 43 3f 52 6e 28 bf
       -1.261463 0.63399005 0.7629726 -0.65793335
0001f0 2f 38 df bf 15 9d 17 bf 45 c8 79 3e f6 72 25 3f
       -1.7439021 -0.59224063 0.24392803 0.6462854
000200 86 d4 b5 3f ed 46 0a 3f 53 b2 9f bf 0e c0 de 3d
       1.4205482 0.54014474 -1.2476295 0.10876475
000210 a4 a7 24 40 c8 40 cd 3d db 78 64 3f ad 54 4c 3d
       2.572732 0.10022122 0.8924691 0.04988544
000220 33 fd fd 3c dd c6 4b be fd 43 1d 3d 13 f9 72 3f
       0.031004524 -0.19900079 0.038394917 0.9491131
000230 b4 c5 aa 3e 1d 87 09 3f 54 aa e7 3f 55 dd 47 40
       0.3335396 0.5372179 1.8098855 3.122884
000240 88 97 b2 3f 8c 9b 41 3f 5b bf 2c 3f 8b 7f ab 3d
       1.3952494 0.7562797 0.67479485 0.08373936
000250 d0 c3 53 3e 7a 83 b7 bf a3 07 b1 3e 3e 1e a5 3e
       0.20680165 -1.4336998 0.3457614 0.32249635
000260 20 7d c9 be d6 19 1f 3f 18 62 ca bf 00 9b ab bf
       -0.39353275 0.621488 -1.5811186 -1.3406677
000270 fb 45 9a 3f 7d ee 8c 3f e3 93 be bf 24 34 8c 3f
       1.2052606 1.1010281 -1.4888881 1.0953412
000280 ce fb 24 40 75 da 67 3c 47 91 a8 3c 24 51 5a 3f
       2.577869 0.014151205 0.020577086 0.8528006
000290 e5 4a b0 bf df 0d ca be 9a e3 c2 3f 64 6f bf bf
       -1.3772856 -0.39463708 1.5225708 -1.4955869
0002a0 19 7a 94 be fd 2d 0a be 9b 70 ad bd 6f b3 bf 3d
       -0.28999403 -0.13494106 -0.084687434 0.09360396
0002b0 2c f3 5d 3f 54 29 bd 3e 27 9b 68 3e 55 cd ee be
       0.86699176 0.36945593 0.22715436 -0.4664103
0002c0 44 9b 68 3f 72 be 91 bf 82 96 c3 3f 03 4c a4 3f
       0.90861917 -1.1386244 1.5280306 1.2835697
0002d0 2f 13 e2 bf 52 76 17 3f 23 e9 5f 40 75 40 a1 be
       -1.7662104 0.5916492 3.4986045 -0.3149449
0002e0 5c 8b 4d 3e 0b b8 2e 3d 2b 20 89 3f cb 2f 9c 3f
       0.20072693 0.042655986 1.0712942 1.2202085
0002f0 9d eb e1 3f 07 8b 9b 3e 67 fb 9f 40 ec bf a9 3f
       1.7650028 0.30379507 4.999439 1.3261695
000300 7d 20 de bf db b8 31 3f 0b 96 2f bf 6d 49 53 c0
       -1.7353665 0.6942269 -0.6858832 -3.3013566
000310 df 5c 46 40 ff 4e 23 c0 d8 62 0a c0 43 71 08 c0
       3.0994184 -2.5516965 -2.162283 -2.131913
000320 9d 5e 31 c0 09 74 13 3e 32 ee 1e 40 ee 25 cb bf
       -2.7713997 0.14399733 2.4832883 -1.587095
000330 dc c2 c4 bf b7 06 c6 3f bd 44 47 3f 27 57 db 3d
       -1.5371966 1.5470799 0.7783926 0.10709982
000340 ba e6 04 3e 64 dc 22 3f d2 2c 7f 3e f8 db 40 3f
       0.1297864 0.6361754 0.24919441 0.75335646
000350 67 16 1a c0 a8 9d 5f bf 98 54 4a bf 6f a7 9c 3e
       -2.4076173 -0.8734994 -0.7903533 0.30596492
000360 24 8b 0c c0 22 b1 8e bf f2 e7 03 40 d5 90 87 3f
       -2.1959925 -1.1147807 2.0610318 1.0591074
000370 3f 97 d9 3b 03 8e 0f bf 43 e9 a8 3f 4f 34 1d be
       0.0066403444 -0.5607607 1.3196186 -0.15351985
000380 de 0d d2 be dd ad c2 3f bc 29 8f bf 98 4b f1 be
       -0.41026205 1.5209309 -1.1184611 -0.47127986
000390 83 65 33 3f 16 ec dd 3f a1 65 d4 bf 31 c4 06 c0
       0.7007677 1.7337673 -1.6593515 -2.1057246
0003a0 5b 44 10 bf 4c 74 fb 3f 47 14 9f bf 3e 3d be be
       -0.563543 1.9644866 -1.2428063 -0.371561
0003b0 17 a9 a5 bf 06 7b 4b bf 90 d5 90 be 61 37 9f 3f
       -1.2942227 -0.79484594 -0.28287935 1.2438775
0003c0 76 d5 c9 bf af a0 22 bf b5 ed 8b bd 0a 1f d8 bf
       -1.5768268 -0.63526434 -0.068324484 -1.6884472
0003d0 de 05 4d 3f f4 ec 75 3d 63 f1 3c bf 1a a0 7a bf
       0.8008708 0.06004043 -0.73805827 -0.97900546
0003e0 f5 49 a7 3f 72 c2 95 be 0f 57 23 3f 68 13 9e 3e
       1.3069445 -0.29249913 0.63804716 0.3087418
0003f0 ef 61 e7 be e6 bd 4f 3d 0e 77 86 bf 8e 26 57 bd
       -0.45191905 0.05071821 -1.0505083 -0.052527003

r.1.Y f4 [10, 10]
000000 d7 df 4d bb dd 6b 09 3f 83 71 7e 3f 78 c2 08 3f
       -0.0031413937 0.5368021 0.99391955 0.53421736
000010 3d 45 9a 3f 39 a7 3d be e0 e5 2b 3f 2d 1b 32 3f
       1.205238 -0.18520822 0.67147636 0.69572717
000020 52 56 3b 3e 36 6c 8c bf bf eb 05 bf 5b 03 93 ba
       0.18294647 -1.0970523 -0.52312845 -0.001121621
000030 78 f0 3a bf 27 ba bd bf 71 3d a3 be 67 40 da 3d
       -0.73023176 -1.4822434 -0.31882814 0.10656815
000040 78 c0 f3 be ce 52 b9 3e de 5a 86 3f 22 69 9d bf
       -0.4760778 0.36195987 1.049648 -1.2297709
000050 83 00 7d bf 5f 9a 39 3f c4 0e 91 3b 29 ed b3 3f
       -0.98828906 0.72501177 0.004426809 1.405675
000060 72 a8 c1 be f3 b7 4c 3f 0b 8b fc 3d e9 d2 6c bf
       -0.37823826 0.79968184 0.12331208 -0.92509323
000070 c8 95 ef 3e 60 98 7d bf 3a 48 0c bf ab a2 be 3f
       0.46793962 -0.9906063 -0.5479771 1.4893392
000080 6d 38 b3 bf 4b 23 b2 bb ea 93 47 3e 3e 00 18 bf
       -1.4001595 -0.005436336 0.19490018 -0.5937537
000090 25 5e 4c bc eb b0 49 bd c6 a5 7f 3e 4d 19 ec 3f
       -0.012473618 -0.049240988 0.24965581 1.8445221
0000a0 09 e9 9d bf 05 ea 9b 3e 92 d3 b9 3e 82 15 52 be
       -1.2336742 0.3045198 0.36294228 -0.20516017
0000b0 fd 90 54 bc d3 af 2a 3f e1 29 5d bf 2b ce b1 3f
       -0.012974021 0.66674536 -0.8639203 1.3891042
0000c0 62 5a 00 3f 2f fd 77 be 28 ce 31 3e 4e 6b 0a be
       0.50137913 -0.24217676 0.17363799 -0.13517496
0000d0 97 c9 51 bf 65 48 15 3f ee 1a 2b bf dc f5 1f 3c
       -0.81948227 0.5831359 -0.66837966 0.009763207
0000e0 22 4b a4 3f 99 22 cc be cb c7 b1 3e 91 2b b0 bf
       1.2835429 -0.39870146 0.34722742 -1.3763295
0000f0 a9 cd 31 bf b3 6c f8 3e dc 7b f1 bd 65 85 ea 3c
       -0.6945444 0.4852043 -0.117912024 0.02862806
000100 e7 9f 5a 3f 55 97 a5 bf ab 69 41 3c fe 42 29 3d
       0.8540024 -1.2936808 0.011804978 0.041323654
000110 ba f9 10 bf 41 bc 5b 3f 28 3c 32 bf b9 2a be be
       -0.5663105 0.8583413 -0.6962304 -0.3714197
000120 2f 42 71 3f 14 79 28 3d 8a 34 b2 bf 15 b9 c1 3e
       0.94241613 0.041131094 -1.3922284 0.3783652
000130 63 d8 7f bc 32 fd c8 bb 65 4b 93 3f 7b ca 17 be
       -0.015615555 -0.006133699 1.1507384 -0.14823334
000140 7c 75 4d be 20 4c 89 bf 2b 5f eb be a7 13 84 be
       -0.20064348 -1.0726357 -0.45971045 -0.25796244
000150 27 07 04 bf 0c e3 9e be 86 ec 17 3f dd a3 90 bf
       -0.51573414 -0.31032598 0.5934528 -1.1300007
000160 a0 d5 3e bc e3 89 93 bf a6 72 8a 3f 9f f7 a1 3f
       -0.011647612 -1.1526455 1.0816238 1.2653693
000170 95 19 80 3f a7 0a ed bf 4f ce 75 3e 45 31 b2 3f
       1.0007807 -1.8518876 0.24004482 1.3921286
000180 c0 d4 5e bf b3 6c 29 3e 4e e8 90 3f e7 1c 76 bc
       -0.8704338 0.16545372 1.1320894 -0.015021539

r.1.D12 f4 [10, 1]
000000 98 91 84 bf a0 69 03 40 7a 4b 34 40 b5 e2 14 c0
       -1.0356932 2.0533218 2.8171067 -2.326337
000010 aa 94 87 40 72 e6 34 c0 aa 87 22 c0 1a 86 17 c0
       4.2368975 -2.8265653 -2.5395303 -2.36756
000020 93 91 7c 40 c6 d5 be bf
       3.9463851 -1.4908988

r.1.B2 f4 [10, 1]
000000 d3 4b 16 3f 04 bd 99 bf f2 6e c0 3e 35 65 12 3f
       0.5870945 -1.2010808 0.37584645 0.5718568
000010 70 8a 45 3b 12 02 1f c0 ba c7 f1 bd 39 c5 b5 bf
       0.003014233 -2.4845014 -0.11805673 -1.4200813
000020 3c 73 61 3e 55 c3 b4 bf
       0.22016615 -1.4122111

r.1.C2 f4 [1, 10]
000000 32 cb c8 be 8d 9e c7 bf 69 4f 9e be bd 6a dd bf
       -0.39217526 -1.5595261 -0.3091996 -1.7298199
000010 92 c8 04 3f 4f 15 44 bf 9d 98 6e 3f 1a 10 95 3e
       0.51868546 -0.76595014 0.9320162 0.29113847
000020 1c cc 03 c0 44 7f ed be
       -2.0593328 -0.46386158

r.2.x0 f4 [1, 10]
000000 05 a7 7e bc 4f 25 12 bc bb ba f6 3a ba 23 86 3b
       -0.01554275 -0.008920028 0.001882396 0.0040936144
000010 22 bd 89 bc a6 25 98 3a 89 c4 1c 3c 09 bf 69 39
       -0.016813818 0.00116079 0.009568342 0.00022291778
000020 44 ac 07 bc b3 43 e0 bb
       -0.008280817 -0.006844008

r.2.X f4 [30, 30]
000000 d3 c6 9b bf 94 aa c0 3e 11 bd f9 3e 1a a3 06 3d
       -1.2170051 0.3763014 0.4877706 0.03287039
000010 29 50 20 bf 89 77 ce 3f 0e cb 7b bf 50 63 08 c0
       -0.62622315 1.6130229 -0.9835671 -2.1310616
000020 fc 81 81 bf db aa 37 bc a0 88 bb bf be 6c ab bf
       -1.0117793 -0.011210169 -1.465107 -1.339256
000030 21 b4 0b bf 5b 61 0e 40 f8 22 a1 3e b9 20 8c 3f
       -0.5457173 2.224692 0.31471992 1.0947486
000040 5d 36 05 40 a4 2f 07 40 0d a4 a7 be 6e 2e 11 40
       2.081443 2.1122828 -0.32742348 2.2684588
000050 89 cb 13 3f 15 b6 8e 3f 91 af 38 bc 9f 33 0f c0
       0.57732445 1.1149317 -0.011272327 -2.2375257
000060 3f 88 a4 3e 06 89 8f bf 5b 49 10 3f 13 b9 6c 3f
       0.32135198 -1.1213691 0.5636193 0.924699
000070 cf 71 e0 3e 8d 92 d4 be c6 ba 39 3f 26 a3 35 be
       0.4383683 -0.4151806 0.7255062 -0.17738017
000080 d8 17 ba 3e 23 0a 86 bf 24 0a 82 3f a3 5f 33 40
       0.36346316 -1.0471843 1.0159345 2.8027122
000090 bd f6 56 bf 5f 00 8f 3e 37 dd 59 40 55 5c 81 3f
       -0.8397024 0.2792997 3.404127 1.0106302
0000a0 84 07 31 bf f1 a1 d1 bf 4c 53 9b 3f 83 04 bd 3f
       -0.6915209 -1.6377546 1.2134795 1.4767002
0000b0 62 6b 20 be b6 9a 0e bf f2 76 b4 3f 81 e4 ae 3e
       -0.15665963 -0.5570482 1.4098799 0.3415871
0000c0 19 3b dd bd 9f 79 75 3f d4 b6 6a 3f a7 93 02 c0
       -0.108022876 0.95888704 0.91685224 -2.040262
0000d0 1f c6 f3 3e e7 b6 6d 3e 12 4d ea 3e b8 0e 1c c0
       0.47612092 0.23214303 0.45761925 -2.4383984
0000e0 ea 7d a6 3f b4 6b 23 40 ac 77 80 bf ba b5 c0 3f
       1.3007176 2.5534487 -1.0036521 1.5055459
0000f0 30 c9 7f 3f d1 55 5d 3d 19 50 8a 3f 81 aa 19 c0
       0.9991636 0.05403692 1.0805694 -2.4010317
000100 10 25 42 3d 00 31 da bf 44 a5 25 be b4 ac 5b bf
       0.047398627 -1.7046204 -0.16176325 -0.858104
000110 3a 1b 7a bd 9e 80 59 3f 43 c5 d1 3e 1a 3b 0e bf
       -0.06106112 0.8496188 0.4097081 -0.5555893
000120 8d be 6c 3f 36 6b b1 3f 29 ce 1c 3f 93 56 15 bf
       0.9247826 1.3860843 0.61252075 -0.58335227
000130 0e c7 b4 be 42 0c d6 3e ab e6 97 3f c0 6a 8c 3e
       -0.35308117 0.41806227 1.1867269 0.27425194
000140 18 ab b6 be 80 5f c5 be d1 97 5f be c5 63 07 3f
       -0.3567741 -0.38549423 -0.21835257 0.5288661
000150 0a 3f cf bf db c8 ef be 9c 17 a3 3f ab 90 2c bf
       -1.6191113 -0.46832928 1.274158 -0.67408246
000160 59 0f 98 bd 1b 5b 41 bf cb 78 42 40 c5 6f 4a 3f
       -0.07424802 -0.7552964 3.0386226 0.79076797
000170 c0 96 06 bf 2d 18 c0 bf 53 44 5e 40 cf 9b 82 bf
       -0.52573776 -1.5007378 3.4729202 -1.0203799
000180 cf d2 5f bf 33 67 2a 40 8a c6 0f c0 2d bf 93 3f
       -0.87431043 2.6625488 -2.2464929 1.1542717
000190 d7 ec e9 3e c3 25 ed 3e 9b e2 e6 bf 4e 28 c2 bf
       0.45688507 0.46317872 -1.8037905 -1.516855
0001a0 d1 ce 7e 3f 7d d6 68 3f ca 2e af 3e 35 50 c7 3e
       0.99534327 0.90952283 0.34215385 0.3892838
0001b0 4a 0d af 3f f7 ad f8 be 83 f6 0f 3f 1c 18 62 3f
       1.367593 -0.48570225 0.5623552 0.8831804
0001c0 bf 9c c0 3e 6e 04 0f 3f 7a 22 e8 3f 04 5a 9b 3d
       0.37619588 0.55866134 1.8135521 0.075855285
0001d0 1f 96 76 c0 19 9d c8 3f 92 25 26 3f 62 46 f6 be
       -3.8529127 1.5672942 0.6490108 -0.48100573
0001e0 35 5c ce be 32 aa 2b bf a7 c1 ea bf d8 db 7f bf
       -0.40304723 -0.6705657 -1.8340348 -0.9994483
0001f0 d4 c6 fb 3e 4f 4d a0 3f b6 71 23 3f 2f 8f 23 3f
       0.4917513 1.2523593 0.63845384 0.63890356
000200 a4 92 16 40 6e f8 03 bf 94 92 8e 3f 5e d2 b7 3f
       2.3527002 -0.5155095 1.1138482 1.4361074
000210 5d ad 3e 3f 20 e5 ac bf dd e7 d8 be f5 00 28 bd
       0.7448328 -1.3507423 -0.42364398 -0.041016538
000220 6b 7d da bf f3 f6 24 3e 53 ee 4f bf f1 27 c3 bf
       -1.7069525 0.16109829 -0.8122303 -1.5246564
000230 bf 0a 06 bf f0 04 09 3f ed ad ff 3e 91 0f a9 3f
       -0.5236015 0.5352316 0.49937382 1.3207875
000240 a1 71 30 bf 5e 32 3b bf a7 55 8b 3e ca 08 8d 3e
       -0.68923384 -0.7312373 0.27213785 0.27545768
000250 e4 af bb 3e a3 13 ef 3f 39 92 05 3f 50 73 1e bf
       0.3665763 1.8677868 0.52176243 -0.618947
000260 8d 82 7c 3f b2 9f 44 bf 5e 57 7b 3f 18 2d 87 bf
       0.98636705 -0.76806176 0.98180187 -1.0560637
000270 d2 2e 8a 3f 67 ce bd 3f 91 4a 21 bf 4a 72 c2 bf
       1.0795538 1.4828614 -0.63004404 -1.5191128
000280 ab dc 8b 3f 1f 20 f8 3f 5e 30 a2 bf 9b e1 01 c0
       1.0926718 1.9384803 -1.267101 -2.0293949
000290 d8 12 9c 3e 74 a2 10 3f 93 f3 0c bf fe de 98 3e
       0.30483127 0.56497884 -0.55059165 0.2985763
0002a0 9a 34 4b bf 3b 65 92 bf 63 7c 3b 40 a4 ff 97 3f
       -0.7937714 -1.1437143 2.929467 1.187489
0002b0 10 38 09 3f df 3c 68 3f 0d cd e9 3f 85 4b a1 3f
       0.5360117 0.9071788 1.8265702 1.2601172
0002c0 db a0 83 bf d3 e9 3f 3f 6a 6f 8c 3f e2 19 50 bf
       -1.0283464 0.7496616 1.0971501 -0.81289494
0002d0 df a9 f2 bf 7b 73 19 40 be 86 03 c0 fe 4b 29 3f
       -1.895809 2.3976734 -2.055099 0.6613158
0002e0 6e 85 bc 3c 03 4c 5f 3e e2 2b ed be 91 d6 56 bf
       0.023012843 0.2180634 -0.46322542 -0.8392115
0002f0 b6 6b 85 3f e0 f4 94 be bb f7 3e bf ca 22 ef 3d
       1.0423496 -0.29093075 -0.74596757 0.11676557
000300 40 17 3c be 30 43 d9 bd 09 13 87 bf 97 0e cc bf
       -0.18368244 -0.10608518 -1.0552684 -1.5941952
000310 a8 7b 77 3f 48 a9 38 c0 37 d0 78 bf 4a 21 f0 3c
       0.9667306 -2.885332 -0.9719271 0.029312748
000320 70 b3 0d 3f 1e 79 15 c0 57 3d 4c 40 90 f1 80 3e
       0.55351925 -2.3355174 3.191244 0.25184298
000330 ea 1b d3 3e ad 15 9e be 5b 28 13 3f ae fb 71 3e
       0.41232234 -0.30875912 0.5748345 0.23631164
000340 77 42 c1 bf f0 82 bc 3f 6b 9f 25 c0 4d 0f 2f c0
       -1.5098408 1.4727459 -2.587855 -2.735309
000350 6b 80 76 bf d2 9e 95 3f 14 60 6b c0 6d 14 75 3d
       -0.962897 1.1689093 -3.6777391 0.059833933
000360 6c b7 73 3e ac 87 f3 bf 8e 61 e2 bf 66 a6 13 c0
       0.23800439 -1.9025779 -1.7686021 -2.3070312
000370 8a 90 ba bf 68 94 d4 bf 85 2d de 3f 0d 0e 89 3f
       -1.457536 -1.660779 1.7357641 1.0707413
000380 2e ca 4d bf 11 e9 93 bf 13 04 8b 3e 42 1b f1 bd
       -0.80386627 -1.1555501 0.27151546 -0.11772777
000390 ef a8 16 3f 8b e2 12 3f fe 61 0f bf 21 da 10 c0
       0.5885152 0.5737693 -0.560089 -2.2633135
0003a0 f0 f8 75 3f 52 5a af bf 97 8e 3e c0 fc 35 4a bf
       0.96082973 -1.3699439 -2.977453 -0.78988624
0003b0 1a c5 60 40 d7 06 1e c0 60 30 04 3f 37 a3 b7 3f
       3.5120301 -2.4691675 0.51636314 1.4346684
0003c0 23 92 17 40 12 c7 18 c0 e1 9a 95 3f 13 73 c7 bf
       2.3682945 -2.3871503 1.168789 -1.5581993
0003d0 55 21 eb 3f 75 6a 8e be bf 70 f2 3d 86 1c 29 3f
       1.8369547 -0.27815595 0.11837911 0.6605915
0003e0 7a 48 ae bf 39 b9 e8 be 31 6f 6e bd f6 ac c4 3e
       -1.3615868 -0.45453814 -0.05821151 0.3841321
0003f0 bb 42 0c bf 6c 4d 4f bf 3f 98 bc 3f 0d 4e cd 3f
       -0.5478932 -0.8097751 1.4733962 1.6039444

r.2.Y f4 [10, 10]
000000 d8 07 6b bc 21 da 13 40 2d c8 6e be 6d b5 17 3f
       -0.014345132 2.3101885 -0.23318549 0.5926121
000010 b9 08 72 3f c9 c7 61 3e 31 7c 82 bf c4 2b 56 be
       0.9454456 0.22048868 -1.019415 -0.20915133
000020 e9 21 ff 3e d9 a7 2a be 4a ba 13 c0 40 05 5a bb
       0.4983056 -0.16665591 -2.3082452 -0.003326729
000030 b4 56 2a 3e 24 f1 ce 3f d6 5f fc bf 76 90 58 bf
       0.16634637 1.616734 -1.9716747 -0.8459543
000040 4e 4a d8 bf 38 b9 fe be 55 1a 26 bf 37 dd 69 be
       -1.6897676 -0.49750686 -0.6488393 -0.22838293
000050 79 d5 5b 3e 3f 32 46 be 94 f0 71 3c 49 e8 1a bf
       0.21468152 -0.19355105 0.014766831 -0.6051069
000060 dc 7b 35 3d ee 11 85 bf 66 8a b7 3f 93 15 fe 3f
       0.044307575 -1.0396097 1.4339111 1.9850334
000070 32 84 89 bd 40 b3 08 bf 10 90 17 bf d6 cc ce bf
       -0.067146674 -0.53398514 -0.59204197 -1.6156261
000080 95 a8 1a 3f bb e6 2e bc 02 c5 88 bf 89 54 1e 3f
       0.60413486 -0.010675128 -1.0685122 0.6184774
000090 5f 72 1d be 2b 2f 8c be 63 c3 75 be b5 45 55 3f
       -0.1537566 -0.27379736 -0.24000315 0.8330949
0000a0 33 d6 6f bf f2 a7 fc 3f eb 20 5d bd 0d b9 89 3f
       -0.9368622 1.9738753 -0.05398647 1.0759598
0000b0 55 ae 78 ba 73 04 91 be 13 bd a1 bf af 03 0b bf
       -0.0009486427 -0.28323707 -1.2635826 -0.54302496
0000c0 89 d0 ba 3f 65 91 8c be 16 99 44 be 57 4e 5b 3f
       1.459489 -0.27454677 -0.19199023 0.8566641
0000d0 3f fa 86 3f 66 dc 23 bf 07 f7 98 3e d4 7c a2 3a
       1.0545119 -0.64008176 0.29875967 0.0012396821
0000e0 1b 27 2b bf d0 4b b2 bf 47 ab 23 bf b1 f5 b1 3f
       -0.66856545 -1.3929386 -0.63933223 1.3903104
0000f0 89 0f 82 3f 3f 99 d6 3f e3 c5 b6 bf 9d 6e 0e 3e
       1.0160991 1.6765517 -1.427914 0.13909383
000100 43 bd a2 3f ce 14 2d 3f 8c 92 1e 3b 09 0c f6 3f
       1.2714008 0.6760987 0.0024196235 1.9222423
000110 1a a9 1f bf da 03 1e c0 98 e2 51 3e ab 4d 01 3f
       -0.62367404 -2.468985 0.20496595 0.50509137
000120 2f ea fc bf 3c f5 81 3e 33 16 0d 3f 68 73 b5 3f
       -1.9758967 0.2538241 0.55112 1.4175844
000130 6e 3c f6 bf 01 28 79 3c 4c e2 d9 3f 7d ae 3a bf
       -1.9237192 0.015207292 1.7022185 -0.729225
000140 b7 94 ff be 76 19 25 3f 26 41 8a 3d 03 00 5e 3e
       -0.49918148 0.64491975 0.06750707 0.21679692
000150 b1 79 ba bf e3 4e 21 3f 36 34 1b 3f 9c 82 da bf
       -1.4568387 0.63010997 0.6062654 -1.7071109
000160 d7 a5 73 bc a9 31 21 3f fb 98 2e 3e fe 3a 77 3e
       -0.014871082 0.629664 0.17050545 0.24143597
000170 03 43 07 3f b7 7e 55 bf b3 06 88 3e a2 0d b4 bf
       0.52836627 -0.83396477 0.2656761 -1.406666
000180 1c b8 1d 40 07 1c 35 3f 19 44 21 bf 73 10 29 3c
       2.4643621 0.7074589 -0.62994534 0.010318863

r.2.D12 f4 [10, 1]
000000 92 31 92 bf ad 32 e6 3e 19 62 ce 3f b5 5e 8a 3f
       -1.1421378 0.44960538 1.6123687 1.0810152
000010 af 68 d9 bf fa d0 25 40 f3 b1 17 c0 c7 7a a4 be
       -1.6985072 2.59088 -2.3702362 -0.32124922
000020 b4 19 4a bf 00 06 e8 bf
       -0.7894547 -1.8126831

r.2.B2 f4 [10, 1]
000000 3c 02 8b bf cf 79 2d bf 82 40 52 3e 89 f6 a1 be
       -1.0860057 -0.6776399 0.2053242 -0.31633404
000010 3f 17 d2 bf ac f0 2e 3f 09 f9 00 bf 1f 70 93 bf
       -1.6413344 0.68335986 -0.5038 -1.1518592
000020 68 7e c6 bf d9 6e cf 3f
       -1.5507326 1.6205703

r.2.C2 f4 [1, 10]
000000 d8 5f ea be 65 a4 c7 be db d6 24 bf ee a0 47 bf
       -0.45776248 -0.3899261 -0.64390343 -0.77979934
000010 c5 d9 d0 bf 1b 1b 98 3e 0f 6b 11 40 b3 e1 4b bf
       -1.6316458 0.2970818 2.2721593 -0.79641265
000020 db bb bf 3e 66 e2 0e 3e
       0.3744801 0.13953552

exp_avg f4 [3]
000000 8c 00 83 3c e5 ae 4b bb f8 fa 52 b8
       0.015991472 -0.0031079587 -5.0301634e-05

exp_avg_sq f4 [3]
000000 0c c3 a5 3d 5b d9 2a 39 f1 8c dc 36
       0.08093843 0.00016293435 6.5729187e-06

exp_avg f4 [3]
000000 99 aa 78 bc f1 38 f8 3a d4 47 8f ba
       -0.015177392 0.0018937868 -0.0010931441

exp_avg_sq f4 [3]
000000 dc 1e 7c 3d d9 8d 3d 3a 3c 24 30 38
       0.061552867 0.0007230915 4.1995416e-05

exp_avg f4 [3]
000000 70 f6 04 3e c0 ce 67 39 56 69 01 3b
       0.12984633 0.00022106897 0.0019746623

exp_avg_sq f4 [3]
000000 6b 0a 77 40 de 16 d5 3c e1 bf a6 37
       3.8600109 0.02601188 1.9878093e-05

exp_avg f4 [30, 30]
000000 92 0e d4 b8 91 73 cc b8 a5 f0 18 b8 02 62 15 ba
       -0.00010111662 -9.749004e-05 -3.646374e-05 -0.0005698503
000010 a0 22 3a 38 fc ed 84 b8 42 d0 8a 38 98 24 40 38
       4.4378103e-05 -6.3385785e-05 6.619144e-05 4.5810448e-05
000020 60 fb ba 38 c5 f2 c9 39 5c 43 94 3a b4 04 a6 38
       8.9159934e-05 0.00038518585 0.0011311579 7.916373e-05
000030 8b 4d 3b 3a c5 1a 2c 3a 3e 9e f5 b9 c2 58 11 39
       0.00071450387 0.0006565268 -0.0004684794 0.00013861342
000040 35 3c 04 39 1e d3 ee 38 26 06 27 ba 44 45 86 b8
       0.0001261093 0.00011388048 -0.00063714606 -6.40252e-05
000050 a1 11 f4 39 c4 7d 53 b9 24 80 12 3a 4f 58 91 38
       0.0004655244 -0.0002016938 0.00055885524 6.9305876e-05
000060 3a fc c1 b9 e0 ba 42 39 a5 82 46 3a 9d d6 55 3a
       -0.00036999752 0.00018570898 0.0007572568 0.0008157285
000070 96 1a 32 ba 6b 60 ed b8 53 cb ba b9 1d 98 21 ba
       -0.0006794123 -0.00011319 -0.00035628173 -0.0006164329
000080 ea 6e cd 39 81 2a 11 39 cd e7 25 b8 0e fb 18 39
       0.00039183284 0.00013844112 -3.9554947e-05 0.00014589375
000090 27 c1 eb 39 72 78 f4 b7 b4 73 8a ba 19 e5 46 ba
       0.00044966603 -2.9143153e-05 -0.0010563047 -0.0007587239
0000a0 4c 9c 4e 3a 2f fb ff b9 b3 3f d6 b9 e7 4f 67 b9
       0.00078815664 -0.00048824536 -0.0004086472 -0.00022059643
0000b0 33 11 46 3a 2a dd 43 b9 be 0f 8c b9 32 3b bd 38
       0.00075556635 -0.00018679039 -0.0002671461 9.023248e-05
0000c0 f5 0c e6 37 55 d5 1b 39 7b 81 d9 b8 bd b4 3b 38
       2.742417e-05 0.00014861424 -0.00010371484 4.47526e-05
0000d0 27 35 c3 39 f4 a5 41 b9 5b 51 81 36 49 98 de b6
       0.000372329 -0.00018467737 3.8539706e-06 -6.633844e-06
0000e0 ed e4 44 39 d0 cb a1 39 73 ed 8e b6 f3 ac 71 b9
       0.00018777298 0.00030860165 -4.2595725e-06 -0.0002304798
0000f0 79 de 42 ba eb 35 10 3a 56 9d 14 3a 50 9a af 39
       -0.00074336637 0.00055011985 0.0005669197 0.00033493573
000100 30 fd 29 39 d3 9f db b8 fe 1e 08 b9 d2 19 cf 38
       0.00016211416 -0.00010472503 -0.00012981516 9.8753386e-05
000110 e5 79 d2 b9 33 f3 ff 39 cc c8 86 ba 12 b0 08 ba
       -0.0004014514 0.00048818588 -0.0010283231 -0.0005214225
000120 09 3c 11 bb 25 3e aa ba 06 3a aa 3a 0b 57 8d 3a
       -0.0022161028 -0.0012988491 0.0012987263 0.0010783387
000130 bc 28 10 ba 1d 87 e4 b8 ff 01 a4 39 99 77 db 39
       -0.0005499234 -0.00010897054 0.00031282005 0.00041860042
000140 0b 38 c7 b9 02 e9 89 b9 66 56 40 ba 14 f9 7a ba
       -0.00037997993 -0.0002630428 -0.0007337093 -0.00095738587
000150 24 04 a0 39 1f 10 c2 b9 bd 5b f6 b9 f8 61 95 ba
       0.00030520663 -0.00037014575 -0.00046989127 -0.0011396995
000160 0a 48 82 3a a1 e1 8a b9 06 fe 7d 3a f1 5e 09 ba
       0.0009939682 -0.00026489518 0.00096890365 -0.00052402826
000170 7b 1b 48 ba 4b d8 e6 ba 44 cb b8 b7 7e 72 e4 39
       -0.00076334894 -0.0017612068 -2.2029162e-05 0.00043572852
000180 f5 a2 20 b9 48 6d 4d 3a f3 0e 5b 3a 57 15 9e 3a
       -0.00015319495 0.00078364136 0.00083564146 0.0012060803
000190 05 26 94 3a 04 e2 db 39 d8 cb 97 3b 60 ba 0b 3b
       0.0011302835 0.0004193933 0.0046324544 0.0021320805
0001a0 ac cb 17 bb a1 34 c4 ba 74 67 42 3a d6 eb 3c 3a
       -0.002316217 -0.0014969298 0.00074159284 0.0007206773
0001b0 bc 0b 23 bb 4b 04 77 ba 08 00 c0 b9 69 41 22 b8
       -0.002487882 -0.0009422942 -0.00036621117 -3.8684728e-05
0001c0 a7 5c 02 3b ec 91 72 3a 3d ed 0c ba 02 ba 11 b9
       0.001989165 0.00092533114 -0.00053759274 -0.00013897571
0001d0 5f 58 c3 3a 71 28 70 3a 36 47 30 bb e0 b7 a5 ba
       0.0014903656 0.00091612997 -0.0026897914 -0.00126433
0001e0 ba 59 5b b8 e9 32 3f b9 85 b4 a1 b8 4e 18 8c 3a
       -5.2297233e-05 -0.00018234145 -7.7107026e-05 0.0010688396
0001f0 97 5f 51 b7 a0 c1 3b 39 08 9e 88 b9 64 90 61 ba
       -1.2479627e-05 0.0001790584 -0.00026057684 -0.0008604585
000200 6c 9e f5 b9 63 ac 79 ba ce d8 db b9 91 5e 87 38
       -0.00046848075 -0.0009524284 -0.00041932467 6.454916e-05
000210 f2 14 47 38 1d 45 93 b9 11 66 22 b9 e5 72 d2 39
       4.7464804e-05 -0.00028089518 -0.00015487547 0.00040139924
000220 54 f0 25 b9 4b 1a 52 b9 14 df a4 38 3d 03 36 b9
       -0.00015825155 -0.00020036956 7.861681e-05 -0.00017358079
000230 f1 08 68 b9 b2 c3 f8 b9 ad d0 cc 38 8c 36 37 b9
       -0.00022128575 -0.0004744805 9.766347e-05 -0.0001747256
000240 1a 58 97 b8 01 3c 85 37 4a b4 ff 39 9a cd a4 37
       -7.216651e-05 1.5882777e-05 0.00048771716 1.9646064e-05
000250 ef 16 35 ba fe bf 92 b9 f7 d4 bb b8 11 64 0d ba
       -0.00069080194 -0.00027990335 -8.956523e-05 -0.0005393634
000260 65 4e a8 b9 fd 03 aa 39 b8 2b 44 39 37 6b 63 36
       -0.00032101866 0.00032427898 0.00018708303 3.3888043e-06
000270 4e 1e 1e b9 a6 a9 29 ba 2f d6 de b9 6d 84 3d ba
       -0.00015079344 -0.0006472118 -0.0004250272 -0.0007229511
000280 fa 86 b6 b9 35 ae 88 b9 26 f1 a4 39 64 f3 59 b7
       -0.0003481431 -0.00026069736 0.00031460187 -1.2990877e-05
000290 81 14 28 b9 a8 fd a2 b9 4a b2 12 39 15 54 64 39
       -0.00016029367 -0.00031088036 0.00013990063 0.00021775097
0002a0 19 4b a3 39 c0 96 c6 b7 bd 17 46 b9 5a 5d 29 3a
       0.00031145735 -2.3673638e-05 -0.00018891595 0.0006460749
0002b0 ac 08 ab b9 bf 27 69 3a 43 c8 a9 39 50 5b 4a 39
       -0.00032622123 0.0008894167 0.00032383399 0.00019298238
0002c0 cc ba 7b ba 50 f0 a5 38 a6 dd 32 3a 33 cb d8 39
       -0.0009602725 7.912575e-05 0.00068231893 0.00041350126
0002d0 37 34 78 3a 79 c6 56 ba eb b7 d7 3a b5 ae 0d 3a
       0.000946823 -0.0008193027 0.001645801 0.00054047565
0002e0 ab ef 43 ba ec d8 10 3a 97 be c7 3a 16 12 d1 3a
       -0.0007474373 0.0005525488 0.0015239295 0.0015950825
0002f0 4e 5a 39 bb 41 7c 2c 3a 45 ba 41 b9 6e 1a d5 b9
       -0.0028282586 0.00065797946 -0.00018475305 -0.00040646218
000300 e2 c0 87 b8 39 9c 5d 39 81 82 15 3a ac 0a d7 3a
       -6.473229e-05 0.000211344 0.00057033455 0.0016406379
000310 0d 7e 8c b9 75 80 8b 38 1c b0 49 ba c7 07 aa 38
       -0.00026796796 6.6519635e-05 -0.0007693784 8.10768e-05
000320 21 14 f2 39 92 f0 9c ba 27 f0 a1 39 15 d3 ac 38
       0.00046172834 -0.0011973551 0.0003088724 8.240916e-05
000330 ea 26 2d ba 9e 08 f5 39 9f 4e b9 3a 86 05 81 3a
       -0.0006605225 0.00046736462 0.0014137811 0.0009843565
000340 fb 54 74 ba e3 a5 19 ba 36 d9 59 b7 d3 f4 f1 b9
       -0.00093205244 -0.0005861206 -1.2984781e-05 -0.0004614951
000350 91 45 d7 39 59 bc 48 3a 47 9b b0 b8 de 59 cd 39
       0.00041059827 0.00076574605 -8.421257e-05 0.00039167603
000360 a4 ce 98 39 fd d1 0e b7 85 e2 dc ba 45 47 2f 39
       0.00029145658 -8.512751e-06 -0.0016852176 0.0001671585
000370 8b 0c 90 ba 34 1c 9a b9 3c 5a a6 b7 0f 29 df 38
       -0.0010990066 -0.00029394182 -1.983076e-05 0.000106411164
000380 8a da 4a 39 c5 a5 b3 3a fd 67 da 37 b5 ca b4 b8
       0.00019345633 0.0013706019 2.6036048e-05 -8.620826e-05
000390 82 54 48 b9 f5 55 c4 38 92 43 1b 3a 6d 38 8d ba
       -0.00019104968 9.362019e-05 0.00059228495 -0.0010774262
0003a0 59 66 82 b8 d3 8e 30 3a c4 79 ee b9 ad b4 53 3a
       -6.217947e-05 0.00067351497 -0.0004548562 0.0008075934
0003b0 f3 c5 48 3a 02 1a bf 3a d7 14 2b ba af 59 2a b9
       0.0007658891 0.0014579894 -0.00065262377 -0.00016245873
0003c0 d9 87 3e ba 7b 12 7a b9 0f 61 be 39 b2 0f 87 3a
       -0.00072681677 -0.00023848742 0.00036311938 0.001030436
0003d0 02 55 7c 39 c6 71 39 b9 81 6b 79 b9 db 33 04 ba
       0.0002406426 -0.00017685359 -0.00023786539 -0.00050431275
0003e0 db 73 6f ba 38 3c 9e ba c0 95 f6 ba 85 0c 48 ba
       -0.000913439 -0.001207239 -0.001881294 -0.000763126
0003f0 24 8f 58 bb db d3 14 bb 2a 5b ca 3a 72 67 ea 39
       -0.0033044303 -0.0022709284 0.0015438546 0.0004470903

exp_avg_sq f4 [30, 30]
000000 7a d6 d7 38 12 4e 7d 38 ac 07 32 38 42 1e 4d 39
       0.00010291948 6.039261e-05 4.2445652e-05 0.00019561595
000010 7e b2 8b 38 12 72 80 37 53 4b 08 39 26 36 b1 39
       6.661283e-05 1.5311907e-05 0.00012998031 0.00033800415
000020 cc 40 c1 38 de d3 13 39 fb b8 bd 39 cd 09 ed 39
       9.2150265e-05 0.00014097939 0.0003618671 0.00045211465
000030 80 9e 3b 3a 14 c9 32 3a 57 63 0b 3a 6a 1b 25 3a
       0.0007157102 0.0006820124 0.0005317232 0.00062983355
000040 5a 73 dd 39 1d cd a7 37 15 69 d6 39 ca fb 80 38
       0.00042238348 2.0003465e-05 0.00040895553 6.150415e-05
000050 2b ed 6d 3a fc 78 04 39 5d dc 00 3a cb bd aa 39
       0.00090761733 0.00012633571 0.0004915649 0.00032566334
000060 d8 61 1d 39 86 8f b0 37 6f 1e 8b 39 11 75 17 3a
       0.00015009136 2.1047668e-05 0.0002653482 0.0005777637
000070 4c 10 57 39 8f bc 80 39 f5 95 91 3a c4 05 47 38
       0.00020510069 0.0002455455 0.0011107313 4.7450667e-05
000080 38 ac 10 3a f9 9a 3c 38 88 1d 7b 39 77 86 51 37
       0.00055188267 4.4967022e-05 0.00023948227 1.2488678e-05
000090 9c 73 f3 39 37 b0 99 3a fd 8a 4a 38 c0 61 f5 39
       0.00046434707 0.001172549 4.8289996e-05 0.0004680287
0000a0 e3 22 06 39 68 ff 27 36 d8 8c c6 37 0b 89 ca 37
       0.00012792232 2.5033605e-06 2.3669025e-05 2.4144092e-05
0000b0 a6 c3 b6 37 df 8f 1d 38 61 2c 92 37 3f 23 37 36
       2.1787197e-05 3.7565707e-05 1.7425222e-05 2.728964e-06
0000c0 d0 4a 01 38 1f bd c5 37 d9 a3 f9 3a 80 2d 43 38
       3.082567e-05 2.3572296e-05 0.0019046023 4.6533998e-05
0000d0 a0 ad 5d 3a 7c 51 69 38 8f 09 0d 3a 41 d5 e0 37
       0.0008456353 5.5627417e-05 0.00053801475 2.6802185e-05
0000e0 f1 f2 96 3a 3e eb 48 3b 9f 9e 9d 37 9f 9e 9a 3a
       0.0011516494 0.0030657793 1.8789722e-05 0.001179654
0000f0 6d 6f bf 3a b0 be 44 3a 71 9f 97 39 50 86 93 3a
       0.0014605351 0.00075052213 0.00028919757 0.0011255238
000100 82 e4 3a 38 e7 10 f2 38 92 41 6f 39 c2 10 fc 39
       4.455867e-05 0.000115426075 0.00022817243 0.0004807767
000110 66 14 da 39 7a dc 39 3a 7d 03 14 3b 28 53 d3 3a
       0.00041595398 0.00070900435 0.0022585087 0.0016122805
000120 fc c6 c7 3a 50 dc b3 3a 2c 5b 5f 3a dd a4 b3 3a
       0.0015241797 0.0013722274 0.00085203606 0.0013705749
000130 9a 6b 37 3a a2 ee 63 38 3a 10 4a 3a 12 e9 33 39
       0.000699693 5.434326e-05 0.00077081064 0.00017157596
000140 04 02 0b 3a a2 26 1a 3a 7b 64 5c 38 a4 96 47 3a
       0.00053027296 0.00058803905 5.2545667e-05 0.0007613695
000150 d4 9b 20 39 72 35 fd 38 c1 ae 86 39 65 6d 3d 3a
       0.0001531684 0.00012073935 0.00025688673 0.0007226079
000160 8f 29 92 39 42 40 05 3a 4f 1d 4c 3b 97 f7 ad 3b
       0.00027878254 0.00050831225 0.00311454 0.005309056
000170 13 f0 91 3a 68 c4 07 3c f9 0e 72 3a 1d 55 92 3a
       0.001113417 0.008286573 0.00092337985 0.0011164282
000180 2c 0f 0b 3a 67 01 a3 3a 67 41 78 3b 86 20 e4 3a
       0.000530469 0.0012436331 0.003788078 0.0017404712
000190 9a af 7f 3c 58 07 40 3c 19 d5 7c 3c 18 aa 6c 3c
       0.0156058315 0.011720501 0.015431666 0.01444485
0001a0 84 df 3c 3c 4c d5 23 3c f0 c5 ff 3b 8e c5 e5 39
       0.0115279 0.009999584 0.0078055784 0.00043825473
0001b0 97 c9 03 3c 56 00 9a 3a c9 b8 bb 3b a2 2a 8e 3b
       0.008043668 0.0011749368 0.005728815 0.0043385783
0001c0 da cf 87 3b dc 77 e8 3b 91 71 b0 3a a7 32 70 3a
       0.004144651 0.0070943665 0.001346158 0.0009162821
0001d0 9e 17 2a 3a 46 a2 7b 3a ca 15 7f 3b 28 e0 5c 3a
       0.00064885046 0.0009599071 0.00389229 0.0008425736
0001e0 c8 3c da 39 91 e9 d8 37 4e 80 2f 39 36 80 fe 37
       0.00041625486 2.585797e-05 0.00016737098 3.0338862e-05
0001f0 2d 94 95 38 3f 19 87 36 d9 b6 24 39 2b 47 c6 39
       7.1324735e-05 4.0262526e-06 0.00015708375 0.00037818527
000200 05 73 81 37 91 ab 35 39 91 26 05 38 46 eb 79 38
       1.5431558e-05 0.00017325419 3.174559e-05 5.958534e-05
000210 1b d5 0c 39 25 02 08 39 be 1b c0 38 11 b1 16 39
       0.00013430828 0.0001297077 9.160441e-05 0.00014371077
000220 e7 16 8c 38 16 62 42 36 45 b2 96 38 76 2e 95 37
       6.679986e-05 2.8965346e-06 7.185763e-05 1.778382e-05
000230 20 73 ad 3a 35 2c 78 38 96 5c dc 39 72 89 d1 38
       0.0013233162 5.916898e-05 0.00042030652 9.991498e-05
000240 16 c9 ae 39 1f 68 a7 37 ae 5a 4d 3a bf 91 05 3b
       0.00033337687 1.9956437e-05 0.0007833642 0.002038106
000250 4b e0 a4 37 da 6e 66 3a 06 8d 93 39 da 2f 52 38
       1.9654768e-05 0.0008790322 0.00028143096 5.0112467e-05
000260 49 08 7d 38 22 82 46 38 a0 93 9f 37 79 dd ca 36
       6.0327617e-05 4.7328074e-05 1.902302e-05 6.045852e-06
000270 db 27 b7 38 a4 fc 5f 39 8e b1 12 37 78 cd 0c 39
       8.733544e-05 0.00021361053 8.743618e-06 0.00013427984
000280 a8 fd ff 38 3d bb 97 38 f4 ee 06 37 e3 91 d3 36
       0.00012206595 7.235117e-05 8.042658e-06 6.3052735e-06
000290 47 32 9b 35 7a b0 51 37 b1 f4 1b 36 3c c3 27 35
       1.1563033e-06 1.249846e-05 2.323923e-06 6.249645e-07
0002a0 ec 8e cc 36 af e1 25 36 a8 52 4c 3a c8 e5 92 36
       6.096312e-06 2.471828e-06 0.0007794299 4.377889e-06
0002b0 6f 38 a8 39 10 c7 3f 37 7b f1 58 39 5d da d6 36
       0.00032085503 1.1430835e-05 0.00020689324 6.403118e-06
0002c0 60 b6 ee 39 f7 4b 90 3a fa 54 40 37 23 9b dd 39
       0.00045530777 0.0011008967 1.1463877e-05 0.0004226799
0002d0 17 e5 a3 3a d4 d8 32 38 57 0b 32 3a 08 70 53 38
       0.0012504187 4.2640444e-05 0.0006791851 5.0410657e-05
0002e0 7a 98 05 3a b3 b9 26 38 64 29 6e 3a f8 9f 1e 3b
       0.0005096268 3.975043e-05 0.0009085147 0.0024204236
0002f0 77 57 8b 38 ab 43 39 3a 43 9b e1 38 5b 6e 33 39
       6.644328e-05 0.0007067273 0.00010757756 0.00017111881
000300 ec a1 3d 39 7a c1 3a 39 c8 85 2f 39 68 05 af 38
       0.00018084765 0.00017810418 0.00016739138 8.345657e-05
000310 da d6 48 39 d2 b0 9a 36 23 10 21 39 9c e6 fc 36
       0.00019153525 4.6101422e-06 0.00015360168 7.5370317e-06
000320 f5 51 7b 3b 32 c1 18 38 df 32 00 3b 42 cd 8d 38
       0.003834841 3.641955e-05 0.0019561572 6.761636e-05
000330 d7 34 6e 3a 43 0e 00 38 e1 0f e7 3a c3 dc 98 3b
       0.0009086853 3.053086e-05 0.0017628634 0.0046649887
000340 d5 2e 02 39 8a 8d ee 3a 7d 7e ab 39 0e 2b f2 37
       0.00012415212 0.0018200141 0.00032709903 2.8868697e-05
000350 6c 66 88 39 13 92 ec 37 0a f1 57 39 e7 3c b5 37
       0.00026016252 2.8201413e-05 0.00020593792 2.1605241e-05
000360 51 82 96 39 39 b0 45 3a 07 42 30 38 62 93 3c 39
       0.00028707323 0.0007541213 4.2023163e-05 0.00017983982
000370 bc b4 78 38 f3 e7 81 37 ee e2 ab 36 a0 ea 93 36
       5.929613e-05 1.5486008e-05 5.122615e-06 4.4082553e-06
000380 e6 c3 96 36 f9 57 db 35 32 d7 61 37 5f 55 a3 34
       4.493154e-06 1.6342375e-06 1.3461149e-05 3.0423232e-07
000390 70 5c 4f 37 80 9a af 35 4f f4 fc 3a 8b e2 82 37
       1.2359684e-05 1.3083481e-06 0.0019298884 1.56027e-05
0003a0 93 a1 54 3a be c9 9a 35 f8 d5 d8 39 c3 a0 ed 36
       0.00081112346 1.1532609e-06 0.0004135815 7.0818655e-06
0003b0 25 da 6b 3a 25 12 21 3b fa 32 e0 36 a4 dd 8e 3a
       0.00089970446 0.0024577465 6.6816547e-06 0.0010899794
0003c0 78 8e bf 39 71 ae ab 3a 6b 90 0e 3a ba 6f 22 3b
       0.00036536506 0.0013098252 0.000543839 0.0024785833
0003d0 95 de 04 3a 3d ef a2 39 13 b9 9f 39 5c 71 31 3a
       0.00050685677 0.00031077294 0.00030464734 0.0006768906
0003e0 39 ac 9b 3a 3b 7c 88 39 82 9d a3 3b c8 e2 81 3b
       0.0011876888 0.000260325 0.0049931416 0.003963802
0003f0 18 d0 a7 3b 17 47 9c 3b d6 0f 6c 3b 45 e2 7b 3b
       0.0051212423 0.0047692168 0.003602018 0.0038434428
