saved_models/RNN_checkpoint.pt (torch, 67181 bytes, 66 tensors)

rnn.weight_ih_l0 f4 [18, 1]
0.0021586765 -0.21227293 -0.106151305 0.07817548 -0.12191274 0.15623291 0.00040913216 0.1418047
-0.028875541 -0.14566228 0.12545492 -0.087396815 0.105271734 -0.15112533 -0.07718727 -0.09159467
0.08486525 -0.06099029
00000000: 9578 0d3b 135e 59be db65 d9bd 771a a03d
00000010: 63ad f9bd 85fb 1f3e ca80 d639 4035 113e
00000020: 668c ecbc 7e28 15be 4177 003e 1afd b2bd
00000030: b598 d73d 99c0 1abe 5c14 9ebd fd95 bbbd
00000040: d5cd ad3d f4d0 79bd

rnn.weight_hh_l0 f4 [18, 18]
0.14302586 0.07334822 -0.14790036 -0.2083077 -0.098813884 -0.17198391 -0.18397546 -0.058126114
0.07729164 0.12811282 -0.31523302 0.08111509 0.002330266 0.16255026 0.09551647 -0.21475722
-0.29877368 -0.17374535 0.20697291 -0.03926069 0.10087101 -0.21521236 0.12668756 -0.20572758
0.06943789 -0.10448571 -0.12417206 0.12115446 -0.23095727 0.06932114 -0.068060726 -0.025841076
-0.22660135 -0.11237853 0.12790006 -0.057293866 0.17400041 0.1889362 -0.011036433 -0.21830298
0.14353377 0.012184387 -0.20774202 0.092198126 0.08260886 0.20904315 -0.1935515 -0.09956106
-0.06551345 0.03442608 -0.23893054 -0.1672596 0.06681237 -0.1153219 0.047782123 0.100091524
0.017325008 0.0079054935 0.10705014 0.09380011 -0.16940098 0.10578017 -0.22730866 -0.16374272
0.011870411 -0.10130051 -0.084780835 -0.19673698 -0.2695926 0.17153674 -0.13462675 0.072562285
0.12862357 -0.12442657 0.04735218 0.16278629 0.056854513 0.016239738 0.27375177 0.18028599
-0.11853583 -0.07135082 0.36725858 -0.034634937 0.029436363 0.10205983 -0.21225573 -0.13044304
0.2883317 -0.047581155 0.13811329 0.12280715 0.017728629 0.18535756 0.31855348 -0.13544759
0.10021953 0.2049571 0.1357579 0.109358154 -0.1305251 -0.17455977 -0.41786265 1.640189e-06
0.17489819 -0.0792099 0.085173205 -0.19041535 -0.13265033 0.06004202 0.19614904 0.26687744
0.23489892 0.109034 0.30144778 0.22566874 0.2217942 0.16980414 0.22412767 0.14630379
-0.28358924 -0.1358706 -0.047670487 0.042326182 -0.1723764 0.15064423 0.047945283 0.048469864
0.030596415 0.08890209 0.32151535 0.18527476 0.004044935 0.26577678 -0.07155846 -0.054721545
-0.17531295 -0.17223547 -0.3842573 -0.12924984 0.10754116 -0.0069876118 -0.21608159 0.030851936
0.014437762 0.15266216 -0.1820221 -0.010219192 -0.14563668 -0.11427561 -0.2698705 -0.16862953
-0.13288462 0.10079461 -0.018897243 -0.0028066267 0.17391184 0.1696694 0.100704044 0.007505595
-0.22508349 0.12414854 -0.058940515 -0.019055434 -0.20305724 -0.16294791 -0.15202509 0.09994787
-0.3195698 -0.30034524 -0.008003574 -0.12744786 -0.032305375 -0.090727836 -0.22695841 0.013349621
0.17062438 -0.16579856 -0.005766249 0.15142488 0.29771394 -0.057550814 0.117278196 -0.12691005
0.43833297 -0.032552227 0.23429747 0.07448403 0.04558114 -0.053920146 0.11343809 0.18111275
0.0036670396 0.13284092 -0.1519571 0.24141581 0.1996165 0.25517303 0.09499932 -0.17009015
-0.14760146 0.115916066 -0.2558273 0.11863172 -0.27396512 -0.2599198 0.04685672 -0.16934949
-0.15851887 0.09706762 0.10267172 0.16220391 -0.10788835 -0.18320212 0.13060029 -0.11026582
-0.1644261 0.05745804 -0.22456579 0.13278799 0.32561323 -0.2112663 -0.279377 -0.047221296
0.03141578 -0.04569873 -0.16173634 -0.066816166 -0.2290029 -0.22555596 -0.2169572 0.19410796
0.22055902 -0.14011724 -0.048392747 0.10511801 -0.031740345 -0.176715 0.09111489 0.08618526
-0.07171235 -0.08782471 0.15475538 0.20603414 -0.19162266 0.1715268 -0.0003040724 -0.21651393
0.06899798 -0.1759693 0.15963635 -0.21158186 0.0066764597 0.07177139 0.1160938 0.1355348
00000000: 5f75 123e 9737 963d 3173 17be 9d4e 55be
00000010: ef5e cabd 8d1c 30be 1064 3cbe a615 6ebd
00000020: 144b 9e3d 0230 033e 3966 a1be ab1f a63d
00000030: 60b7 183b 9373 263e 249e c33d 51e9 5bbe
00000040: ddf8 98be 4dea 31be b5f0 533e d1cf 20bd
00000050: 7695 ce3d a160 5cbe 62ba 013e 40aa 52be
00000060: 7435 8e3d 9bfc d5bd ec4d febd d41f f83d
00000070: 1080 6cbe 3ef8 8d3d 6c63 8bbd aab0 d3bc
00000080: 2f0a 68be b726 e6bd 3cf8 023e f9ac 6abd
00000090: 2a2d 323e 7e78 413e 28d2 34bc d18a 5fbe
000000a0: 84fa 123e 06a1 473c 53ba 54be 5fd2 bc3d
000000b0: d62e a93d 680f 563e 5d32 46be abe6 cbbd
000000c0: ea2b 86bd 5c02 0d3d 35aa 74be 1a46 2bbe
000000d0: edd4 883d e32d ecbd 30b7 433d c9fc cc3d
000000e0: 2ded 8d3c 0b86 013c 1b3d db3d 461a c03d
000000f0: 7377 2dbe 46a3 d83d 9ac3 68be 2cac 27be
00000100: 1d7c 423c a476 cfbd 93a1 adbd 6b75 49be
00000110: 0b08 8abe 54a7 2f3e 98db 09be 899b 943d
00000120: e6b5 033e 5cd3 febd 5cf4 413d 73b1 263e
00000130: 47e0 683d 3309 853c 3129 8c3e e49c 383e
00000140: eac2 f2bd 6120 92bd 5109 bc3e 5ddd 0dbd
00000150: 8724 f13c bf04 d13d 9159 59be dc92 05be
00000160: 36a0 933e 75e4 42bd 926d 0d3e 5182 fb3d
00000170: a13b 913c 5fce 3d3e 7119 a33e c6b2 0abe
00000180: e63f cd3d 46e0 513e 1e04 0b3e 2bf7 df3d
00000190: 5fa8 05be ccbf 32be 18f2 d5be 7724 dc35
000001a0: 8318 333e cd38 a2bd 4a6f ae3d 3efc 42be
000001b0: 7dd5 07be 9fee 753d 4bdb 483e 29a4 883e
000001c0: 5889 703e 384d df3d 5d57 9a3e b515 673e
000001d0: 051e 633e 23e1 2d3e b981 653e a9d0 153e
000001e0: 9c32 91be aa21 0bbe 2142 43bd 385e 2d3d
000001f0: 7083 30be 7b42 1a3e 4662 443d 5688 463d
00000200: 55a5 fa3c 4d12 b63d a99d a43e abb8 3d3e
00000210: 608b 843b e513 883e 3e8d 92bd b323 60bd
00000220: 3d85 33be 7f5e 30be 5fbd c4be 125a 04be
00000230: 8a3e dc3d 56f8 e4bb 7e44 5dbe 33bd fc3c
00000240: 5d8c 6c3c 7853 1c3e 0064 3abe 666e 27bc
00000250: c821 15be 5509 eabd 772c 8abe 38ad 2cbe
00000260: e812 08be 686d ce3d 64ce 9abc 62ef 37bb
00000270: f215 323e d1bd 2d3e ec3d ce3d 7ff1 f53b
00000280: 497c 66be 9741 fe3d 9c6b 71bd 241a 9cbc
00000290: 3dee 4fbe d1db 26be 77ac 1bbe 78b1 cc3d
000002a0: a79e a3be dac6 99be 6c21 03bc b181 02be
000002b0: a452 04bd 84cf b9bd c967 68be 5eb8 5a3c
000002c0: 28b8 2e3e 19c7 29be cdf2 bcbb 200f 1b3e
000002d0: f66d 983e 67ba 6bbd 8d2f f03d b5f4 01be
000002e0: 2e6d e03e 7c55 05bd adeb 6f3e 158b 983d
000002f0: 4ab3 3a3d 5fdb 5cbd 3b52 e83d 9f75 393e
00000300: b752 703b 7307 083e a49a 1bbe b535 773e
00000310: 4568 4c3e 0aa6 823e 018f c23d 1d2c 2ebe
00000320: d624 17be 6765 ed3d ccfb 82be 30f5 f23d
00000330: 2845 8cbe 3514 85be d5ec 3f3d f469 2dbe
00000340: c552 22be 63cb c63d 8d45 d23d c818 263e
00000350: 91f4 dcbd 5699 3bbe 15bc 053e 0cd3 e1bd
00000360: 515f 28be 1f59 6b3d 93f4 65be 93f9 073e
00000370: c7b6 a63e 3156 58be 810a 8fbe 1e6b 41bd
00000380: d5ad 003d 972e 3bbd 369e 25be ead6 88bd
00000390: bc7f 6abe 24f8 66be 072a 5ebe 3dc4 463e
000003a0: 39da 613e e57a 0fbe 7937 46bd 1c48 d73d
000003b0: 2a02 02bd c7f4 34be 729a ba3d e681 b03d
000003c0: eddd 92bd 71dd b3bd 3278 1e3e 9dfa 523e
000003d0: bb38 44be b9a4 2f3e e86b 9fb9 d4b5 5dbe
000003e0: d04e 8d3d 4c31 34be b677 233e eaa8 58be
000003f0: 34c6 da3b e1fc 923d 96c2 ed3d a2c9 0a3e

rnn.bias_ih_l0 f4 [18]
-0.311427 0.12190846 -0.10119275 -0.48657683 -0.37954158 -0.48601612 -0.6494891 -0.52098536
0.082106486 -0.06411001 -0.41562682 -0.18754658 0.25403443 0.111067936 0.16729362 -0.0015897839
-0.1516436 -0.07894225
00000000: 5c73 9fbe 25ab f93d 253e cfbd 9920 f9be
00000010: 4653 c2be 1bd7 f8be eb44 26bf 4c5f 05bf
00000020: 7227 a83d 1c4c 83bd 0acd d4be 360c 40be
00000030: cd10 823e 9677 e33d 054f 2b3e 4c60 d0ba
00000040: 7648 1bbe 79ac a1bd

rnn.bias_hh_l0 f4 [18]
-0.2539411 -0.34000808 0.08254651 -0.4663327 -0.19603261 -0.35652414 -0.6539223 -0.49824885
0.004349218 -0.16347653 -0.56009084 -0.01582065 0.11250415 -0.13458686 0.035426944 -0.020584099
-0.35244182 0.15173873
00000000: 9104 82be 8a15 aebe 250e a93d 29c3 eebe
00000010: c6bc 48be 558a b6be 7467 27bf 791a ffbe
00000020: e383 8e3b 6466 27be 1d62 0fbf 4f9a 81bc
00000030: 9368 e63d 23d1 09be d81b 113d fc9f a8bc
00000040: 4173 b4be 6661 1b3e

rnn.weight_ih_l1 f4 [18, 18]
0.15434808 0.13556688 -0.053362817 -0.13759883 0.31050977 -5.562235e-05 -0.09465879 0.2165935
0.15704197 0.037591837 0.01566459 -0.0033935409 0.10369444 0.2664653 0.09414019 -0.04183672
0.2679863 0.06834397 0.0894277 0.006283041 0.14971702 0.033275355 -0.15599552 0.062677436
-0.08119935 -0.2915041 -0.12554446 -0.21274771 -0.22547102 -0.26188138 0.0600177 -0.11606475
-0.10084661 0.11295215 -0.007954416 -0.21569331 0.029428046 0.18726844 -0.24754153 0.17919809
-0.078189194 -0.1093482 -0.15788521 0.203261 -0.013156227 0.16809395 0.010073166 0.07223969
-0.056796268 -0.24846095 -0.02222447 0.04848725 -0.07194497 -0.17579485 -0.055219345 0.06768986
0.024977896 -0.25000983 0.054293532 -0.035928674 0.10251435 0.10651769 -0.24567182 0.22634962
-0.29230487 0.0754153 -0.043966148 0.05148439 -0.18751267 0.14170335 -0.17675471 -0.26838675
0.061002865 0.18102814 0.23364218 0.031767428 0.2893249 0.20995308 -0.069763064 -0.119140185
0.2354192 -0.12612142 0.1690703 -0.10315993 0.16215847 0.07064416 0.026620349 0.10809967
-0.14129682 0.00962841 0.0797893 -0.03311279 -2.6018079e-05 -0.022913989 0.40867972 0.27757436
0.28304252 0.27529198 -0.15869042 0.022747817 0.16931152 -0.09809068 0.27453077 -0.0671722
0.0975502 0.1480137 0.25234655 -0.06341247 -0.21609046 0.32123625 0.038895242 0.14875612
0.2305304 -0.05724393 0.15744615 -0.17709194 -0.026201775 0.109955296 0.18807133 -0.15657525
-0.0025748464 0.028334443 -0.24727866 -0.12664594 -0.18609004 -0.12035942 -0.044990327 -0.13958132
-0.09966108 -0.20871128 0.14487287 -0.05395929 -0.14871527 0.06136626 -0.17623645 0.1649893
0.13553247 -0.23162733 -0.18501356 -0.15541653 -0.12759298 0.029430218 -0.23307578 -0.17474185
-0.24044937 -0.077195436 -0.09379121 -0.13254504 -0.18134505 0.11247054 -0.08470864 -0.050736334
0.050127354 -0.01232357 0.1969144 0.07004601 0.14186898 -0.18245916 0.15005003 -0.0020204638
-0.06758887 0.20326726 0.21878245 -0.08372034 -0.057545148 -0.0039192066 0.012066221 0.18503669
-0.09225278 0.29944035 -0.028981417 0.07700633 0.08704776 -0.018233448 0.29984313 -0.11875303
-0.064642146 0.0981653 0.23122108 -0.04058793 -0.17352265 -0.048287358 -0.04389174 -0.046942055
0.10641538 -0.10005129 0.11981367 0.041738685 -0.1673898 -0.17113484 0.08587641 -0.036522012
0.16399203 0.02418229 -0.13092664 -0.10453957 -0.06381131 0.021600554 -0.039960165 -0.052861053
0.026837932 -0.14742516 0.10449892 -0.014972997 -0.16916685 0.14158481 -0.0038443366 -0.1601809
-0.20449694 0.0810898 0.039004058 0.12365151 -0.07816671 0.164855 0.044131223 0.0128375385
-0.0771922 0.14497975 -0.011946284 -0.096567765 0.25094455 0.18177037 0.12132941 -0.0684931
0.19796728 0.13202901 -0.16718635 -0.234731 0.3764489 0.16249016 -0.19735716 0.16504224
-0.010426975 -0.11050141 -0.10972699 0.16864371 -0.007949926 0.17346106 0.2396435 0.1250161
0.24803112 0.09617473 -0.025597518 -0.12034829 0.1998788 -0.01823937 0.23615338 0.16820668
-0.11275939 0.235728 -0.053499877 0.15282683 0.1254788 -0.084484085 0.008453197 -0.16297181
00000000: 6c0d 1e3e 0bd2 0a3e f892 5abd b5e6 0cbe
00000010: 23fb 9e3e 0b4c 69b8 78dc c1bd b0ca 5d3e
00000020: 9ccf 203e e6f9 193d 0753 803c 2b66 5ebb
00000030: c05d d43d 246e 883e 92cc c03d fb5c 2bbd
00000040: 8035 893e ecf7 8b3d df25 b73d f8e1 cd3b
00000050: 6b4f 193e bd4b 083d 4abd 1fbe 075d 803d
00000060: d84b a6bd 0740 95be ba8e 00be 89da 59be
00000070: e0e1 66be 5115 86be 1fd5 753d 5bb3 edbd
00000080: ab88 cebd 7553 e73d 3d53 02bc b5de 5cbe
00000090: 1613 f13c 4cc3 3f3e 877b 7dbe b47f 373e
000000a0: a821 a0bd f3f1 dfbd a9ac 21be a723 503e
000000b0: 378d 57bc d220 2c3e ec09 253c 67f2 933d
000000c0: 34a3 68bd 8c6c 7ebe 1710 b6bc 919a 463d
000000d0: e257 93bd 9103 34be ae2d 62bd fba0 8a3d
000000e0: 729e cc3c 4a01 80be e562 5e3d f229 13bd
000000f0: 0bf3 d13d f225 da3d 6591 7bbe 32c8 673e
00000100: fca8 95be 5673 9a3d d915 34bd 4ce1 523d
00000110: 5203 40be af1a 113e 30ff 34be fd69 89be
00000120: 24de 793d 715f 393e e53f 6f3e 901e 023d
00000130: 6522 943e f1fd 563e f0df 8ebd c5ff f3bd
00000140: bb11 713e f925 01be c420 2d3e 8345 d3bd
00000150: df0c 263e e3ad 903d eb12 da3c 5c63 dd3d
00000160: 1db0 10be 7bc0 1d3c 9368 a33d 47a1 07bd
00000170: 6641 dab7 1eb6 bbbc 783e d13e 3a1e 8e3e
00000180: f3ea 903e 12f3 8c3e be7f 22be a159 ba3c
00000190: 0060 2d3e c4e3 c8bd 4c8f 8c3e 9491 89bd
000001a0: 66c8 c73d e790 173e 9133 813e 66de 81bd
000001b0: d146 5dbe 1479 a43e 9e50 1f3d 8653 183e
000001c0: 2910 6c3e 9c78 6abd 9039 213e 9757 35be
000001d0: 1ba5 d6bc 3e30 e13d c595 403e 4355 20be
000001e0: c1be 28bb a21d e83c 9e36 7dbe 79af 01be
000001f0: 638e 3ebe 007f f6bd c747 38bd 68ee 0ebe
00000200: 1c1b ccbd 69b8 55be 8e59 143e 6b04 5dbd
00000210: d148 18be 305b 7b3d 5477 34be f4f2 283e
00000220: 06c9 0a3e b72f 6dbe 3274 3dbe 8325 1fbe
00000230: bca7 02be a417 f13c 6bab 6ebe 87ef 32be
00000240: 5c38 76be a418 9ebd 9b15 c0bd e3b9 07be
00000250: 84b2 39be f456 e63d b97b adbd e7d0 4fbd
00000260: 5752 4d3d cde8 49bc eea3 493e 4874 8f3d
00000270: 1a46 113e 93d6 3abe b7a6 193e c269 04bb
00000280: 096c 8abd 4b25 503e 8208 603e 9275 abbd
00000290: 76b4 6bbd b06c 80bb 66b1 453c 427a 3d3e
000002a0: 07ef bcbd 3f50 993e 706a edbc 7fb5 9d3d
000002b0: 1946 b23d 505e 95bc 0a85 993e ca34 f3bd
000002c0: 1a63 84bd e40a c93d 38c5 6c3e 873f 26bd
000002d0: ecaf 31be f7c8 45bd d3c7 33bd 5046 40bd
000002e0: 4ff0 d93d b1e7 ccbd df60 f53d 2ff6 2a3d
000002f0: 3b68 2bbe f93d 2fbe f9df af3d 1b98 15bd
00000300: 87ed 273e f019 c63c a211 06be d818 d6bd
00000310: 81af 82bd a5f3 b03c 45ad 23bd d584 58bd
00000320: 39db db3c 9ff6 16be 8803 d63d 4d51 75bc
00000330: 133a 2dbe 9cfb 103e 44f1 7bbb 7606 24be
00000340: a567 51be 6912 a63d b8c2 1f3d 013d fd3d
00000350: de15 a0bd c0cf 283e f1c2 343d 8a54 523c
00000360: f216 9ebd 9275 143e 59ba 43bc 52c5 c5bd
00000370: ce7b 803e 0322 3a3e 8e7b f83d 1c46 8cbd
00000380: efb7 4a3e 9d32 073e e632 2bbe 535d 70be
00000390: e9bd c03e d263 263e ff17 4abe d500 293e
000003a0: e7d5 2abc 904e e2bd 8bb8 e0bd f0b0 2c3e
000003b0: 6840 02bc c79f 313e 1b65 753e 3804 003e
000003c0: dffb 7d3e 42f7 c43d e3b1 d1bc 2a79 f6bd
000003d0: 07ad 4c3e bb6a 95bc 31d2 713e 5f3e 2c3e
000003e0: 65ee e6bd ae62 713e b022 5bbd a37e 1c3e
000003f0: 847d 003e fe05 adbd 477f 0a3c 15e2 26be

rnn.weight_hh_l1 f4 [18, 18]
-0.044546816 0.20935863 0.044581883 -0.023681793 0.08958106 0.27484906 0.211972 -0.18024282
-0.1096954 0.0054220674 0.23878223 -0.053478155 -0.106007956 0.06885451 -0.11473562 0.046701524
0.03303654 -0.17988978 0.07286627 0.055598326 -0.04952125 -0.27353266 0.0109008625 0.053023633
-0.12351817 -0.09110913 0.015807794 -0.19394003 0.1298474 0.15112317 -0.12540978 -0.2609148
0.1985416 -0.0327805 0.041584544 -0.32250085 0.06917261 -0.15689877 -0.2358079 -0.2246479
0.034695797 0.074646346 -0.21763018 0.13366126 -0.2670716 0.16090776 0.15841489 -0.0952892
0.12399208 0.17857775 0.06285626 -0.27917147 -0.14391114 0.10687925 0.11769895 0.090056695
-0.1585761 -0.106728435 -0.17560044 -0.19461243 0.11915367 -0.19345944 -0.058247983 -0.010062412
-0.2035772 -0.005112106 -0.09807684 0.034111556 -0.24085996 -0.019877717 -0.21489571 0.094009005
0.26779792 0.023267416 0.08220029 -0.12143625 -0.1862003 -0.07046784 -0.08068464 0.044741467
0.2792515 0.06432699 -0.15196392 -0.025703294 -0.17479979 -0.10878455 0.19738105 0.03241619
-0.22478901 -0.09207259 0.08154741 0.19886869 0.2864628 0.11701446 0.14840522 -0.013138095
0.06333913 -0.14228554 -0.0016810305 0.2875142 0.20585394 0.3009417 -0.061740346 0.052466586
0.10865408 0.14854103 -0.1489339 -0.13552597 0.025362656 -0.18326968 0.08185001 -0.07612047
-0.11584324 0.1279816 0.1535377 0.22926489 0.5630257 0.0028095557 0.18184271 0.1295849
-0.12884511 0.11224409 -0.032394886 -0.13535948 -0.056131594 -0.079115525 -0.16493821 -0.0719259
0.079315536 0.17303316 0.01790401 -0.22825444 0.12483087 -0.071319945 0.21049418 -0.22775438
-0.05514648 0.1827924 0.101965 -0.11759378 -0.20409629 -0.0025315646 0.09105439 -0.19567934
-0.052642018 -0.0029671101 -0.061316244 0.15149556 -0.16538233 0.084724404 -0.17179814 -0.034329843
0.044090375 0.17787805 -0.09008687 -0.18541782 -0.315598 -0.15895095 0.14879122 0.23705785
-0.13095298 0.1651633 0.0045214216 0.20196563 -0.0050059673 -0.13709119 0.029896341 0.21475035
-0.16313726 0.024535732 -0.018897776 0.09358104 0.049765173 -0.0044431644 -0.14040871 0.11975616
-0.09829294 -0.2521235 0.00042511238 -0.2164527 0.08558959 0.13374297 0.2093344 -0.08608274
0.09300274 0.19392525 0.030165117 0.0994401 -0.06341293 0.20538007 0.13586292 0.10390997
-0.07708313 -0.090806164 -0.11176644 0.09538574 -0.10568832 -0.06235898 -0.3050072 -0.07698772
-0.13429897 -0.21213727 0.0720734 -0.26297706 -0.09871989 -0.016712153 -0.21338215 0.069633126
-0.14799494 0.04243208 0.06615926 0.139664 -0.0017296424 0.06286134 0.15771107 0.04671495
-0.07232398 -0.08408678 0.009463932 0.024773901 -0.24086484 0.14160918 -0.0020860787 -0.21956372
0.9054389 0.11615695 0.08012233 0.15474972 -0.0479345 -0.23602729 -0.06056814 0.21969351
-0.17323804 0.13544409 0.064358845 -0.09466385 0.0009061012 0.040299404 -0.22016205 0.16283631
0.19321264 0.13226318 0.20243956 0.0034902445 -0.15030023 -0.04889242 -0.075879045 0.10251946
0.13937792 -0.163954 -0.04646111 0.20955282 -0.18816045 -0.100701876 0.16883418 0.104666196
00000000: b976 36bd 1c62 563e 7e9b 363d 5200 c2bc
00000010: 4676 b73d 04b9 8c3e 300f 593e 9391 38be
00000020: fba7 e0bd 99ab b13b 5483 743e e90b 5bbd
00000030: b31a d9bd 9803 8d3d 82fa eabd 194a 3f3d
00000040: 5351 073d 0735 38be e93a 953d 12bb 633d
00000050: cbd6 4abd 790c 8cbe 8899 323c 4f2f 593d
00000060: 18f7 fcbd 6c97 babd 597f 813c 3798 46be
00000070: b8f6 043e 08c0 1a3e 6c6b 00be a096 85be
00000080: 7d4e 4b3e d844 06bd 8e54 2a3d d51e a5be
00000090: 5faa 8d3d 12aa 20be a077 71be 190a 66be
000000a0: 2e1d 0e3d 2fe0 983d 72da 5ebe 7fde 083e
000000b0: 9cbd 88be 01c5 243e 8337 223e fc26 c3bd
000000c0: 8fef fd3d 16dd 363e c8ba 803d 90ef 8ebe
000000d0: 715d 13be 82e3 da3d 260c f13d a56f b83d
000000e0: c661 22be 7094 dabd 9ad0 33be 7b48 47be
000000f0: d706 f43d 3b1a 46be 7095 6ebd d1dc 24bc
00000100: 8b76 50be 7483 a7bb 83dc c8bd 8fb8 0b3d
00000110: fea3 76be 98d6 a2bc 9f0d 5cbe cb87 c03d
00000120: cf1c 893e 4f9b be3c a058 a83d 92b3 f8bd
00000130: 4bab 3ebe 7151 90bd fd3d a5bd d442 373d
00000140: 0dfa 8e3e debd 833d 6e9c 1bbe b78f d2bc
00000150: b7fe 32be 6fca debd 421e 4a3e d7c6 043d
00000160: 172f 66be 8e90 bcbd 5402 a73d 3ca4 4b3e
00000170: 41ab 923e 47a5 ef3d 8af7 173e 2a41 57bc
00000180: f2b7 813d 4db3 11be 0656 dcba 1035 933e
00000190: 60cb 523e 0815 9a3e 72e3 7cbd 34e7 563d
000001a0: 0886 de3d 241b 183e 2182 18be 52c7 0abe
000001b0: 58c5 cf3c 0cab 3bbe faa0 a73d 0de5 9bbd
000001c0: 383f edbd 9c0d 033e fd38 1d3e 6ac4 6a3e
000001d0: 7422 103f 8620 383b fa34 3a3e e7b1 043e
000001e0: f9ef 03be 3be0 e53d 80b0 04bd ad9b 0abe
000001f0: 3eea 65bd 5207 a2bd 90e5 28be e34d 93bd
00000200: 2f70 a23d 9b2f 313e 6eab 923c 88bb 69be
00000210: 54a7 ff3d 3110 92bd c98b 573e 7238 69be
00000220: 47e1 61bd ee2d 3b3e 07d3 d03d 02d5 f0bd
00000230: 9efe 50be 9be8 25bb b97a ba3d 2a60 48be
00000240: 289f 57bd d973 42bb be26 7bbd a721 1b3e
00000250: fc59 29be fd83 ad3d daeb 2fbe 739d 0cbd
00000260: 1c98 343d aa25 363e 777f b8bd 2bde 3dbe
00000270: 1096 a1be 0ac4 22be ba5c 183e 4bbf 723e
00000280: 8a18 06be 9120 293e 6f28 943b 14d0 4e3e
00000290: 1909 a4bb a261 0cbe 2ce9 f43c 84e7 5b3e
000002a0: 740d 27be 29ff c83c 82cf 9abc 6ba7 bf3d
000002b0: 91d6 4b3d f797 91bb 4dc7 0fbe b842 f53d
000002c0: cf4d c9bd 5516 81be 9ee1 de39 c7a5 5dbe
000002d0: 9849 af3d ebf3 083e c25b 563e 264c b0bd
000002e0: 3878 be3d 5794 463e d61c f73c 40a7 cb3d
000002f0: a3de 81bd 274f 523e a61f 0b3e c0ce d43d
00000300: c3dd 9dbd 95f8 b9bd cee5 e4bd 9959 c33d
00000310: 1e73 d8bd 216c 7fbd e729 9cbe bdab 9dbd
00000320: ab85 09be 833a 59be 389b 933d eea4 86be
00000330: a72d cabd ede7 88bc da80 5abe d09b 8e3d
00000340: fc8b 17be 43cd 2d3d 827e 873d 1404 0f3e
00000350: 2bb5 e2ba 72bd 803d 037f 213e 2d58 3f3d
00000360: 981e 94bd b135 acbd 9c0e 1b3c a3f2 ca3c
00000370: 46a5 76be ff01 113e 98b6 08bb 50d5 60be
00000380: d8ca 673f b2e3 ed3d 2d17 a43d b676 1e3e
00000390: f756 44bd 23b1 71be 4c16 78bd 56f7 603e
000003a0: 5065 31be dbb1 0a3e 92ce 833d 1fdf c1bd
000003b0: 6c87 6d3a fd10 253d 2972 61be 90be 263e
000003c0: 89d9 453e 0070 073e 514c 4f3e 96bc 643b
000003d0: 4ee8 19be 6b43 48bd 7966 9bbd b9f5 d13d
000003e0: 16b9 0e3e 8fe3 27be 014e 3ebd 0495 563e
000003f0: 22ad 40be c93c cebd dee2 2c3e 3b5b d63d

rnn.bias_ih_l1 f4 [18]
-0.1898773 -0.23637459 -0.5672998 -0.055402394 -0.24536851 -0.32939318 -0.09739001 0.03849446
0.4875005 -0.3041812 -0.45706752 -0.023206795 -0.41583848 -0.28712547 -0.24398144 0.49531624
-0.22832173 0.1805582
00000000: 326f 42be 2e0c 72be 8f3a 11bf 9fed 62bd
00000010: e241 7bbe 39a6 a8be 6a74 c7bd 5eac 1d3d
00000020: aa99 f93e a3bd 9bbe c104 eabe 2d1c bebc
00000030: c8e8 d4be 1c02 93be 45d6 79be 179a fd3e
00000040: 2ccd 69be 40e4 383e

rnn.bias_hh_l1 f4 [18]
-0.059344612 0.07372243 -0.19500087 -0.00600529 -0.16070041 -0.25369176 -0.3646544 -0.21665668
0.5946883 -0.22609648 -0.1591855 -0.061554074 -0.19201118 -0.4615533 -0.24326095 0.49737886
0.021624021 0.09231235
00000000: 5613 73bd c9fb 963d 4fae 47be 06c8 c4bb
00000010: a68e 24be e3e3 81be fbb3 babe 40db 5dbe
00000020: 7e3d 183f d685 67be 8601 23be 2020 7cbd
00000030: 949e 44be b750 ecbe 6619 79be 71a8 fe3e
00000040: dc24 b13c 420e bd3d

rnn.weight_ih_l2 f4 [18, 18]
-0.34334773 0.015935358 -0.21985215 -0.026973056 -0.111316994 -0.2894715 -0.23339832 0.0015513131
0.11772661 0.09318095 -0.14350058 -0.04187048 -0.19710445 -0.19335711 -0.06462635 0.116545275
-0.061491184 0.013637288 0.13316785 -0.012573609 0.112832814 0.096569784 0.07296805 -0.040167183
-0.26317897 -0.20276599 0.14676015 0.11491422 0.07447256 0.01146561 -0.26338536 -0.25383314
0.13226523 -0.06121937 -0.29455602 -0.08027227 -0.13404804 -0.07726146 0.0021653615 0.030522104
-0.2789111 -0.08016763 -0.19035485 0.15943569 0.11671569 0.05054015 0.14485922 0.042531196
-0.28791755 -0.01906233 -0.22164717 -0.07066574 -0.07638634 0.12551083 -0.09423039 -0.14032826
0.030157767 0.09838208 0.17707133 0.28134117 0.24054064 0.074404866 0.41601562 0.049321678
-0.06598141 0.12205398 -0.06255586 0.17843032 0.21221787 0.20622998 -0.14805366 0.17143197
-0.20796242 -0.07928389 0.15511586 0.12772824 -0.07476542 0.07909163 -0.22925267 0.18426743
0.22880049 -0.07075153 0.03652756 -0.115353614 -0.20921686 -0.16666083 -0.015652861 -0.19283141
-0.1904979 0.025867656 -0.10218995 -0.056171693 0.0705606 -0.12421578 0.20957209 -0.013632489
-0.10233688 -0.06279271 -0.11967151 0.19887614 0.23787755 -0.06297132 -0.01675734 0.30096453
-0.17050564 0.008759323 -0.1672394 -0.2554877 -0.059702262 -0.19457985 0.067597546 -0.13295859
-0.057724833 -0.18311077 0.03680355 0.21838354 -0.035433054 -0.20553376 -0.29002428 0.16580953
0.039287902 0.03728631 -0.019917455 0.11827184 0.02382402 0.1150877 0.084418595 -0.027357742
0.14202231 0.086509965 -0.028223854 -0.16678618 -0.033165667 0.18356764 0.14931232 -0.15710321
-0.1263823 0.033111725 0.028110428 0.16339727 0.054413036 0.13059124 -0.0053326907 -0.22151266
-0.18812776 -0.07704915 -0.26725018 -0.2065147 0.05758851 -0.022096287 -0.19020367 0.01398941
0.13881043 0.032446347 0.21524534 -0.19763647 0.0030660613 -0.29563254 -0.029073767 -0.14990558
-0.04520419 0.13418144 0.13483219 -0.053410236 -0.023017047 -0.10148023 -0.12392571 -0.094089724
0.19357717 0.16292432 -0.0053559723 -0.08792185 0.19084525 -0.07147226 -0.0052663703 -0.021751633
-0.01146102 -0.14192371 -0.02290967 -0.19102971 0.17820336 -0.1233226 0.00956012 -0.10452514
0.17439522 0.2608264 -0.112279356 -0.128616 0.84001577 0.17528634 0.23597082 -0.113490805
0.2065881 0.2529526 0.0053601097 -0.02545148 0.25556308 0.047514748 0.0070467126 -0.05941542
-0.15854244 -0.2043225 0.164205 -0.07885152 0.15671603 0.19285125 -0.12325127 -0.044249307
-0.12318685 -0.06437909 0.09519731 0.069634244 -0.1939124 -0.06153654 -0.22609895 -0.15619631
0.2299678 -0.07211185 0.099436484 0.05975035 0.04474506 0.08365839 0.19418225 0.03236985
0.7735495 0.1555832 0.069594696 0.09931407 0.24621181 0.13987736 0.22608866 -0.07013492
0.07427293 0.17752771 -0.18689212 -0.010939398 0.24083559 -0.17831713 -0.10664376 0.027464706
0.09230481 0.089087315 -0.16858599 0.14037746 -0.055429958 0.050027505 -0.03667144 0.1889591
-0.12919936 -0.24899395 -0.043035958 0.085596435 -0.09684481 0.003059552 0.00083518197 0.12509508
00000000: 46cb afbe de8a 823c ec20 61be 99f6 dcbc
00000010: 2afa e3bd 9c35 94be f8ff 6ebe 6e55 cb3a
00000020: a61a f13d a7d5 be3d d1f1 12be 6180 2bbd
00000030: c0d5 49be 68ff 45be d25a 84bd 4aaf ee3d
00000040: 2ede 7bbd ee6e 5f3c 275d 083e 8a01 4ebc
00000050: e414 e73d 61c6 c53d 4670 953d 5886 24bd
00000060: 65bf 86be e3a1 4fbe 4b48 163e 2658 eb3d
00000070: 1285 983d 41da 3b3c 72da 86be 6bf6 81be
00000080: 8970 073e 2ac1 7abd 0cd0 96be ca65 a4bd
00000090: e443 09be 423b 9ebd bde8 0d3b 7e09 fa3c
000000a0: 70cd 8ebe ed2e a4bd 62ec 42be 1c43 233e
000000b0: a308 ef3d 3003 4f3d fa55 143e 3135 2e3d
000000c0: ee69 93be 9a28 9cbc 7af7 62be 33b9 90bd
000000d0: 7170 9cbd e985 003e ddfb c0bd 36b2 0fbe
000000e0: 6c0d f73c 8b7c c93d 3052 353e f30b 903e
000000f0: 4950 763e 9461 983d 0000 d53e 8705 4a3d
00000100: 4321 87bd 70f7 f93d 491d 80bd 70b6 363e
00000110: a44f 593e f42d 533e 619b 17be dd8b 2f3e
00000120: 1af4 54be 985f a2bd b1d6 1e3e 31cb 023e
00000130: 9d1e 99bd cbfa a13d 36c1 6abe 9ab0 3c3e
00000140: ad4a 6a3e 2ee6 90bd ec9d 153d 843e ecbd
00000150: f23c 56be 23a9 2abe 6e3a 80bc 9975 45be
00000160: e211 43be 68e8 d33c f748 d1bd 4a14 66bd
00000170: 1382 903d d864 febd 119a 563e ce5a 5fbc
00000180: 0096 d1bd 7799 80bd 5616 f5bd 30a6 4b3e
00000190: 2c96 733e 1bf7 80bd b046 89bc 0618 9a3e
000001a0: 0899 2ebe 4383 0f3c ce40 2bbe 49cf 82be
000001b0: 5c8a 74bd f13f 47be 9570 8a3d 4c26 08be
000001c0: e070 6cbd 6481 3bbe 52bf 163d ef9f 5f3e
000001d0: 4022 11bd 7177 52be 107e 94be f9c9 293e
000001e0: 5aec 203d 88b9 183d ee29 a3bc 8238 f23d
000001f0: 972a c33c 1ab3 eb3d a8e3 ac3d 581d e0bc
00000200: 4c6e 113e 232c b13d b635 e7bc ffc9 2abe
00000210: b9d8 07bd 28f9 3b3e 54e5 183e aadf 20be
00000220: 5d6a 01be 29a0 073d d747 e63c 9d51 273e
00000230: 34e0 5e3d b6b9 053e dabd aebb 37d4 62be
00000240: 90a4 40be f2cb 9dbd 04d5 88be 9778 53be
00000250: eee1 6b3d 4603 b5bc c0c4 42be d733 653c
00000260: 5224 0e3e 76e6 043d 4669 5c3e 3761 4abe
00000270: f9ef 483b 265d 97be 1c2c eebc d980 19be
00000280: 0728 39bd dc66 093e 7311 0a3e b1c4 5abd
00000290: 3f8e bcbc ded4 cfbd c3cc fdbd 1db2 c0bd
000002a0: 1839 463e a2d5 263e 2781 afbb 5f10 b4bd
000002b0: f06c 433e 0c60 92bd 8491 acbb 7b30 b2bc
000002c0: 01c7 3bbc 7354 11be 0fad bbbc 4b9d 43be
000002d0: f17a 363e 8f90 fcbd 0da2 1c3c 4711 d6bd
000002e0: a994 323e 0a8b 853e b8f2 e5bd eab3 03be
000002f0: 460b 573f 437e 333e 56a2 713e de6d e8bd
00000300: d58b 533e 0183 813e dca3 af3b 9f7f d0bc
00000310: 2ad9 823e d39e 423d 1ce8 e63b 955d 73bd
00000320: f358 22be eb39 51be 5b25 283e e87c a1bd
00000330: 2b7a 203e cc7a 453e 296b fcbd c33e 35bd
00000340: 6349 fcbd 2fd9 83bd cff6 c23d 669c 8e3d
00000350: f990 46be bd0d 7cbd 7c86 67be edf1 1fbe
00000360: ae7c 6b3e 61af 93bd 5ba5 cb3d c8bc 743d
00000370: 9946 373d 1755 ab3d b6d7 463e 3f96 043d
00000380: 5707 463f 3451 1f3e aa87 8e3d 2d65 cb3d
00000390: f31e 7c3e 033c 0f3e c983 673e e6a2 8fbd
000003a0: 681c 983d d3c9 353e a660 3fbe 293b 33bc
000003b0: 9b9d 763e c498 36be 0b68 dabd aafd e03c
000003c0: 4e0a bd3d 6973 b63d cea1 2cbe 1cbf 0f3e
000003d0: 860a 63bd a4e9 4c3d cb34 16bd 7f7e 413e
000003e0: d64c 04be 45f8 7ebe 7946 30bd 2f4d af3d
000003f0: 9256 c6bd c482 483b 1df0 5a3a ed18 003e

rnn.weight_hh_l2 f4 [18, 18]
-0.17378347 0.191152 0.1962929 -0.18995039 -0.050581332 -0.116819516 -0.076950505 0.21485643
-0.20963435 0.112473615 -0.30965957 -0.112451896 -0.13984697 0.016332353 -0.038277544 -0.10774282
-0.105131716 -0.14336236 -0.1043886 -0.20183086 0.17282197 -0.17292699 -0.23639578 0.1267898
0.031387888 0.10408045 -0.1449906 -0.34378025 -0.22086321 -0.1841805 -0.059941165 0.04332812
0.13799468 -0.14587793 0.12650506 -0.21134111 0.054178536 -0.0069150687 -0.072098054 0.0013334255
0.012600416 0.091012 -0.010896561 0.13458228 0.04844627 -0.20900781 0.07049812 -0.047891524
0.146061 -0.11336842 0.23320726 -0.1939687 0.049112014 -0.23477718 0.25958595 0.1194597
0.18135557 -0.14197345 -0.194151 0.17251389 -0.036915693 0.16551803 -0.052889075 -0.048457183
0.07112791 0.20267892 0.19826482 0.05902941 0.014568576 0.05510731 0.20510702 -0.15003148
-0.072022 -0.28723666 -0.025988348 -0.086862154 0.13352413 0.15064098 -0.26138043 -0.1643357
-0.039605103 -0.0023503893 -0.113809906 -0.20818998 -0.1510656 -0.06609296 0.18954638 -0.06149369
0.09569921 -0.19060087 0.082916535 -0.20661636 -0.20175909 0.06094864 -0.10792569 0.21535671
0.20839062 -0.16970037 0.06371088 -0.04392834 -0.08503545 -0.061246153 -0.057425193 0.16740099
0.05604171 0.17659678 0.060801145 0.15725207 0.045579623 -0.11145184 -0.073834926 -0.2744259
-0.047300883 -0.053448815 -0.13893405 -0.15472426 -0.051489662 -0.17401369 -0.046226494 -0.06963406
-0.12213499 0.14455149 0.1581837 0.01191984 -0.1468682 0.030062925 -0.16217557 0.10329595
0.15920863 -0.096283786 0.16454569 0.16155013 -0.074217334 -0.14803983 -0.052658476 0.0389515
-0.28090087 -0.07482631 -0.14662929 0.09640468 -0.006766002 0.11050899 0.123943634 -0.018362138
0.050735842 -0.09436258 -0.20018625 -0.22696559 0.0054541393 0.0716125 -0.067835085 -0.009735292
0.1472954 0.098259926 0.0005706159 0.06624091 -0.27865028 -0.20046805 -0.1747917 0.11741424
-0.20759913 -0.25007424 0.15522452 0.024297688 -0.23850608 0.14789326 -0.05378202 0.08007095
-0.14765207 -0.091331474 0.05238634 0.17810577 0.1644884 -0.18364996 -0.13852082 0.015401406
0.15006292 0.12923522 -0.41129974 0.008055491 0.10766519 -0.05324174 0.23325454 0.008866894
-0.20821084 -0.06979225 0.06761238 -0.109467156 0.14532691 0.26323715 0.094861545 0.002265663
0.2989515 0.26005837 0.24006529 0.07413298 0.087641284 -0.12058666 0.02399302 0.16914804
-0.047656037 -0.27051565 0.12465953 0.1685659 0.1375444 -0.048966747 0.04494458 -0.0128777735
-0.15691468 -0.09444868 0.1320916 -0.036055524 0.22214597 -0.18120614 -0.09708314 -0.0713373
-0.038426798 0.235864 0.21233173 -0.05621434 0.16958888 0.28939214 -0.07853384 0.056278054
0.32491904 -0.122378275 0.047780678 -0.101454444 0.24672113 0.12941916 0.17994377 0.22636616
0.04709125 -0.17278887 0.07234547 -0.07583989 0.059509322 0.12911402 -0.08593239 -0.042993996
0.08852977 0.015578144 0.13904372 0.12885158 0.15332596 -0.2297628 0.04603905 0.051246036
-0.15199818 0.101942636 0.041468076 0.22530949 -0.22497682 0.22171715 -0.11534654 0.050557982
00000000: 4bf4 31be 5abd 433e 0201 493e 5b82 42be
00000010: 5f2e 4fbd 123f efbd 3a98 9dbd 5303 5c3e
00000020: 63aa 56be 9158 e63d b38b 9ebe 2e4d e6bd
00000030: 0b34 0fbe 6dcb 853c eac8 1cbd 45a8 dcbd
00000040: 4c4f d7bd 95cd 12be b1c9 d5bd c0ac 4ebe
00000050: 3ef8 303e c613 31be bc11 72be 2fd5 013e
00000060: 9690 003d 2228 d53d 6a78 14be f703 b0be
00000070: f729 62be d099 3cbe de84 75bd d478 313d
00000080: 7a4e 0d3e 0661 15be 8b8a 013e ce69 58be
00000090: 50ea 5d3d cd97 e2bb 25a8 93bd 56c6 ae3a
000000a0: fa71 4e3c 8064 ba3d 7d87 32bc f0cf 093e
000000b0: 996f 463d 2506 56be 5161 903d e729 44bd
000000c0: 0491 153e b42d e8bd e2cd 6e3e bb9f 46be
000000d0: ae29 493d 6e69 70be 73e8 843e 4aa7 f43d
000000e0: 46b5 393e 7d61 11be 85cf 46be 7ba7 303e
000000f0: e934 17bd 8f7d 293e 37a2 58bd 0a7b 46bd
00000100: 82ab 913d 108b 4f3e ef05 4b3e d3c8 713d
00000110: 09b1 6e3c 34b8 613d 9307 523e daa1 19be
00000120: 4580 93bd af10 93be 84e5 d4bc c9e4 b1bd
00000130: 8dba 083e a141 1a3e a8d3 85be 9e47 28be
00000140: f638 22bd fd08 1abb 2b15 e9bd c12f 55be
00000150: f1b0 1abe bf5b 87bd 7218 423e cfe0 7bbd
00000160: f3fd c33d e02c 43be 25d0 a93d 3d93 53be
00000170: ef99 4ebe 48a5 793d 2508 ddbd 7886 5c3e
00000180: 5a64 553e efc5 2dbe da7a 823d 34ee 33bd
00000190: 1127 aebd 3fdd 7abd ae36 6bbd 2a6b 2b3e
000001a0: fe8b 653d c9d5 343e 9f0a 793d b006 213e
000001b0: b3b1 3a3d dd40 e4bd c436 97bd 8d81 8cbe
000001c0: 92be 41bd 25ed 5abd ba44 0ebe 0970 1ebe
000001d0: d3e6 52bd a530 32be fe57 3dbd 4d9c 8ebd
000001e0: e921 fabd 4e05 143e e8fa 213e 6f4b 433c
000001f0: 9e64 16be 8646 f63c 5a11 26be d48c d33d
00000200: 9607 233e 6f30 c5bd aa7e 283e 666d 253e
00000210: 42ff 97bd c197 17be 6ab0 57bd 9c8b 1f3d
00000220: 3dd2 8fbe 893e 99bd fd25 16be d16f c53d
00000230: 57b5 ddbb 8a52 e23d 29d6 fd3d 326c 96bc
00000240: 63d0 4f3d 2b41 c1bd a0fd 4cbe ab69 68be
00000250: a3b8 b23b 93a9 923d 1fed 8abd c680 1fbc
00000260: 9bd4 163e 803c c93d 6395 153a 50a9 873d
00000270: 40ab 8ebe 7f47 4dbe 98fc 32be e176 f03d
00000280: de94 54be bb09 80be 2df3 1e3e f20b c73c
00000290: f03a 74be 5571 173e 894a 5cbd 3dfc a33d
000002a0: 1b32 17be ff0b bbbd 0f93 563d 5c61 363e
000002b0: a66f 283e bc0e 3cbe 67d8 0dbe 2e56 7c3c
000002c0: 18aa 193e 3d56 043e e195 d2be 2efb 033c
000002d0: 917f dc3d 0314 5abd 47da 6e3e 7346 113c
000002e0: 3935 55be 3def 8ebd 5c78 8a3d 5130 e0bd
000002f0: 94d0 143e 05c7 863e c546 c23d 847b 143b
00000300: 2c10 993e 5f26 853e add3 753e 08d3 973d
00000310: 467d b33d 24f6 f6bd 038d c43c 2535 2d3e
00000320: fa32 43bd 0781 8abe 7f4d ff3d 8a9c 2c3e
00000330: 70d8 0c3e 5b91 48bd cf17 383d 4cfd 52bc
00000340: 3eae 20be 4f6e c1bd 0543 073e f5ae 13bd
00000350: 3c7a 633e 1a8e 39be 86d3 c6bd 4a19 92bd
00000360: 6b65 1dbd 5586 713e 7d6d 593e 0241 66bd
00000370: b5a8 2d3e 352b 943e 5ad6 a0bd d183 663d
00000380: ca5b a63e 76a1 fabd acb5 433d 59c7 cfbd
00000390: 77a4 7c3e 7586 043e 2e43 383e 88cc 673e
000003a0: c1e2 403d 91ef 30be dd29 943d f251 9bbd
000003b0: 0cc0 733d 7736 043e 52fd afbd 791a 30bd
000003c0: 194f b53d 793b 7f3c 7a61 0e3e abf1 033e
000003d0: 7b01 1d3e f046 6bbe 7193 3c3d 5de7 513d
000003e0: 69a5 1bbe 4dc7 d03d 6eda 293d 88b7 663e
000003f0: 5360 66be d209 633e cf3a ecbd e315 4f3d

rnn.bias_ih_l2 f4 [18]
-0.08394986 -0.028709175 0.015202939 -0.07814933 -0.22878844 -0.3364653 0.100956306 -0.02342727
-0.04681558 -0.026569176 -0.061381377 0.03391314 0.022550704 -0.504751 -0.04380957 0.008099644
-0.08485624 -0.36070102
00000000: e7ed abbd 812f ebbc bf15 793c c20c a0bd
00000010: 8447 6abe 2e45 acbe 2ec2 ce3d 8cea bfbc
00000020: b2c1 3fbd 9aa7 d9bc 0a6b 7bbd 81e8 0a3d
00000030: 41bc b83c 5d37 01bf aa71 33bd 5fb4 043c
00000040: 1cc9 adbd cead b8be

rnn.bias_hh_l2 f4 [18]
-0.06996698 -0.26869228 -0.20994101 -0.006272982 -0.14658763 -0.31127277 0.04566219 -0.11943021
-0.06710412 -0.4885363 -0.0730691 -0.26982772 -0.17159723 -0.5312662 -0.28268608 0.13617553
-0.17365822 -0.258152
00000000: d94a 8fbd 0992 89be c7fa 56be 968d cdbb
00000010: 111b 16be 255f 9fbe 4708 3b3d d397 f4bd
00000020: e36d 89bd 6e21 fabe 41a5 95bd dc26 8abe
00000030: 2fb7 2fbe 1001 08bf 3bbc 90be 9971 0b3e
00000040: 76d3 31be 802c 84be

rnn.weight_ih_l3 f4 [18, 18]
0.010499819 0.15682113 0.01518914 0.05499285 -0.0982428 -0.09327256 0.11140086 0.026350973
0.05910955 -0.17774591 -0.2481781 -0.012465432 -0.2369407 0.105199225 0.19640209 -0.09768343
-0.21229824 0.22816783 -0.12575378 -0.24791533 -0.23112786 -0.01911049 0.04577246 0.15219742
0.1297515 0.04046583 0.033264443 0.21288201 -0.15732552 -0.10138781 0.1395373 -0.13938779
0.12636752 0.048420504 0.02320122 -0.053891066 -0.1049421 0.2611203 0.24908717 -0.11111394
-0.12061926 0.050054405 0.1768408 0.044454742 -0.1264929 0.20197845 -0.037017655 0.27529424
0.08371048 0.20921694 0.12827614 0.0987355 0.22032095 0.04251377 0.16630355 0.21281202
-0.12012147 0.18718924 -0.16745648 0.1646229 0.009679563 0.11273322 0.05880714 0.03224278
-0.03047521 0.23740967 0.14465447 -0.15935996 0.2910839 -0.13221227 0.025210347 0.11649881
0.2172472 0.1186685 -0.090645224 0.11088012 -0.14145002 0.18209566 0.012046974 0.078583725
-0.09818182 0.13634887 0.30058032 -0.107214525 0.1539388 -0.023016147 0.0022444816 0.2797398
-0.16379185 0.017716076 0.0847724 0.10705013 -0.09212441 -0.12867601 0.047520936 -0.21457216
0.031292263 -0.14907618 -0.043067195 0.2121646 -0.19572623 -0.11657844 -0.18133663 0.14048567
0.19468115 -0.15242338 0.14871867 0.15098153 -0.20251341 0.024839398 0.051539868 -0.097651556
0.15856099 -0.014633554 -0.030603249 0.07664626 -0.21550259 -0.23150131 -0.011799425 -0.029615438
-0.03889655 -0.20000175 0.18782423 -0.14574729 -0.15983292 -0.19893607 -0.30199194 -0.0033087488
-0.20510365 0.044276267 0.20287421 0.015266601 0.14601786 -0.22418974 0.051524468 0.07056057
-0.19155912 -0.076786585 -0.24110569 -0.08259803 -0.22517285 -0.079924375 -0.26603135 -0.07934685
0.12332522 -0.109529786 -0.007704608 0.23531875 0.043893367 0.114925794 -0.04403478 0.012487993
-0.11826372 0.25940654 0.12823866 0.17009933 0.23543061 0.3158669 -0.075288214 0.12523493
-0.13348803 0.16328546 -0.021588722 0.14727399 -0.070271015 0.23691407 0.16706699 0.23132792
-0.13724755 0.21300675 -0.0594696 -0.16321065 0.2742788 0.10732996 0.033858925 -0.080872536
0.14240697 -0.045735776 -0.11882488 0.06604563 -0.20072481 0.03854502 -0.16464977 -0.06389466
-0.23317537 0.05357338 -0.1328348 0.06996309 0.035632856 0.17988144 0.23146102 -0.011322007
-0.06123847 -0.170408 -0.09701872 -0.024304697 -0.042602167 0.18649282 -0.07609729 -0.008627881
0.009807628 -0.20366506 0.19654143 -0.09008437 -0.19078512 -0.003727074 -0.20717494 0.029408947
-0.15252124 -0.05169078 -0.06932482 0.17056993 0.18189962 0.2336582 0.02596437 0.15034495
-0.19343057 -0.21876475 0.032145828 -0.03378607 0.050266296 0.09010557 0.08939256 0.050751388
-0.08731515 -0.123702966 -0.034715954 0.13393912 -0.102777064 -0.15724975 0.13022058 0.15625736
-0.06611451 -0.114015855 -0.2348208 -0.04634281 0.01130574 -0.2342681 -0.18810482 -0.2045186
0.12411411 0.16052955 0.23295775 0.21042371 -0.08769983 0.04475338 0.077934705 -0.12362299
-0.13579755 0.19722699 -0.10950232 0.08691428 -0.110223 -0.18163598 -0.10370886 -0.05221914
00000000: 6f07 2c3c b895 203e dfdb 783c 2f40 613d
00000010: 8533 c9bd af05 bfbd 2226 e43d ffdd d73c
00000020: db1c 723d 0603 36be 6622 7ebe d03b 4cbc
00000030: 95a0 72be b172 d73d a11d 493e 400e c8bd
00000040: b664 59be d4a4 693e 99c5 00be 84dd 7dbe
00000050: c8ac 6cbe 9a8d 9cbc e77b 3b3d a4d9 1b3e
00000060: 94dd 043e 80bf 253d 4c40 083d befd 593e
00000070: f119 21be 6aa4 cfbd dee2 0e3e acbb 0ebe
00000080: 7d66 013e 9454 463d 7c10 be3c e1bc 5cbd
00000090: e2eb d6bd 8fb1 853e b510 7f3e b58f e3bd
000000a0: 3b07 f7bd d905 4d3d c115 353e 2d16 363d
000000b0: 5b87 01be 70d3 4e3e d39f 17bd 5ef3 8c3e
000000c0: 6670 ab3d f73c 563e d25a 033e d635 ca3d
000000d0: d19b 613e eb22 2e3d 7a4b 2a3e 65eb 593e
000000e0: 3f02 f6bd 89ae 3f3e b679 2bbe e892 283e
000000f0: 0897 1e3c ade0 e63d c1df 703d 0111 043d
00000100: 26a7 f9bc 851b 733e 4d20 143e 422f 23be
00000110: f308 953e a762 07be ee85 ce3c ee96 ee3d
00000120: 0d76 5e3e 7808 f33d 34a4 b9bd 1e15 e33d
00000130: 46d8 10be 4977 3a3e ac60 453c 81f0 a03d
00000140: 8d13 c9bd 0a9f 0b3e aae5 993e 4a93 dbbd
00000150: 22a2 1d3e 5c8c bcbc 2718 133b 0e3a 8f3e
00000160: 0db9 27be 4e21 913c 279d ad3d 193d db3d
00000170: b9ab bcbd a5c3 03be 50a5 423d ceb8 5bbe
00000180: 512c 003d 6da7 18be 3a67 30bd ad41 593e
00000190: 756c 48be adc0 eebd 4fb0 39be 7adb 0f3e
000001a0: 7f5a 473e e014 1cbe b549 183e e79a 1a3e
000001b0: ad5f 4fbe fe7b cb3c 781b 533d 8afd c7bd
000001c0: d05d 223e 93c1 6fbc aab3 fabc b7f8 9c3d
000001d0: b6ac 5cbe ae0e 6dbe 6052 41bc 139c f2bc
000001e0: fd51 1fbd 42cd 4cbe ff54 403e c73e 15be
000001f0: 3eab 23be e6b5 4bbe b09e 9abe 98d7 58bb
00000200: b106 52be 085b 353d 42be 4f3e c420 7a3c
00000210: b585 153e ff91 65be 520b 533d 0f82 903d
00000220: 1328 44be 4942 9dbd 69e4 76be 2829 a9bd
00000230: b693 66be 64af a3bd 4335 88be 9a80 a2bd
00000240: ef91 fc3d 2751 e0bd f076 fcbb 66f7 703e
00000250: 88c9 333d 375e eb3d d05d 34bd 709a 4c3c
00000260: 4034 f2bd efd0 843e ff50 033e 852e 2e3e
00000270: b914 713e 4eb9 a13e b530 9abd 963d 003e
00000280: 16b1 08be 4e34 273e d5da b0bc fece 163e
00000290: 40ea 8fbd 9a99 723e 9c13 2b3e 3ae1 6c3e
000002a0: 9f8a 0cbe 711e 5a3e 6596 73bd b120 27be
000002b0: 456e 8c3e cfcf db3d a8af 0a3d 80a0 a5bd
000002c0: 22d3 113e 7055 3bbd 755a f3bd ee42 873d
000002d0: ce8a 4dbe 62e1 1d3d f399 28be 34db 82bd
000002e0: 86c5 6ebe c36f 5b3d d905 08be cf48 8f3d
000002f0: c2f3 113d d732 383e 1e04 6d3e f07f 39bc
00000300: 31d5 7abd 6f7f 2ebe c0b1 c6bd a51a c7bc
00000310: 9c7f 2ebd f9f7 3e3e e5d8 9bbd f55b 0dbc
00000320: 2cb0 203c 938d 50be 2842 493e 277e b8bd
00000330: 2d5d 43be ed41 74bb ab25 54be 08eb f03c
00000340: 872e 1cbe b6b9 53bd 2cfa 8dbd e2a9 2e3e
00000350: e543 3a3e 1844 6f3e 3bb3 d43c 07f4 193e
00000360: aa12 46be de03 60be 58ab 033d 4363 0abd
00000370: 08e4 4d3d 4589 b83d 7213 b73d b0e0 4f3d
00000380: 49d2 b2bd fb57 fdbd 5132 0ebd 5627 093e
00000390: c87c d2bd 1406 21be 8b58 053e ee01 203e
000003a0: 0b67 87bd 2581 e9bd dd74 70be f5d1 3dbd
000003b0: b63b 393c fae3 6fbe 8d9e 40be 536d 51be
000003c0: 8a2f fe3d dc61 243e 7a8c 6e3e 5079 573e
000003d0: f89b b3bd 524f 373d 3b9c 9f3d 0d2e fdbd
000003e0: 830e 0bbe dff5 493e c142 e0bd 1d00 b23d
000003f0: 99bc e1bd c8fe 39be 5065 d4bd bde3 55bd

rnn.weight_hh_l3 f4 [18, 18]
0.126498 0.0077805873 -0.2407658 0.13649693 -0.22490382 0.2040422 0.169099 0.10790668
-0.10527976 -0.05493159 -0.2568761 0.13278194 -0.046464372 0.11448234 -0.15941386 0.22768618
0.09075646 -0.12608014 0.0042971787 -0.23200054 -0.21698354 -0.22153214 -0.1354004 0.06552992
-0.101585425 -0.14146371 0.10483464 -0.02096746 -0.17492622 -0.06396658 -0.1219982 0.04998304
0.10586011 0.18781564 -0.22040872 -0.08523514 0.115384854 -0.03206392 0.18798214 0.012423652
0.07103633 -0.20150866 0.22589788 -0.17960356 0.054043364 -0.13303025 0.20101164 0.0136238
0.08259377 -0.12460386 0.080167495 0.019234072 0.21370813 0.2333021 0.01790759 0.03610689
0.09135167 -0.07384561 -0.062188216 -0.21700463 -0.17573795 -0.13273224 0.06348136 0.055036943
0.03573526 0.035298154 -0.15189913 -0.1725521 0.2737269 -0.20929065 0.026064241 0.1569235
0.11598337 -0.10237453 -0.19354372 0.21649516 0.05665428 0.21496148 0.1655574 0.03178277
0.09969002 -0.0028610537 -0.11881841 0.028623413 0.19755125 0.19689302 0.26920205 0.13430078
0.21799093 -0.07736326 -0.12836398 -0.008085986 -0.12190032 -0.06395425 -0.08074004 0.20625016
-0.015849406 0.22815384 -0.18276444 -0.23249997 0.033700537 0.046971258 -0.09511273 -0.11928109
0.06713235 0.011808058 -0.031577036 0.119658805 -0.15576397 0.18540567 -0.21633118 -0.17485517
0.02604629 0.1448517 -0.058474816 -0.18502523 -0.06500463 -0.13516344 -0.07531454 -0.043566607
0.056708302 -0.11045407 -0.16529042 -0.11768513 -0.19742502 -0.235431 0.053851347 0.07164493
0.07426173 -0.04547784 -0.13571934 -0.14176093 0.11739572 -0.25404528 0.08038574 -0.18786798
-0.3156503 -0.169743 0.08856657 0.11785461 -0.0025316856 0.14825425 0.14303298 0.082181364
0.19962414 -0.100369275 0.09904084 0.27483046 -0.09393821 0.23481996 -0.09879083 -0.08662358
0.07406954 0.14680964 0.113866955 -0.13480869 0.08880208 0.12319281 0.033912316 -0.2766046
0.30810863 -0.027081441 -0.051929947 0.29342768 -0.050047245 0.23792516 0.2360845 -0.1534154
-0.13449521 -0.120260924 0.17510967 0.32424694 0.047080804 -0.070398614 -0.07675089 -0.09758834
0.31990296 -0.05395726 -0.09611687 -0.07633844 0.08658108 0.053968586 0.13448882 0.0027426195
0.013616452 0.07722708 -0.055320792 -0.14475477 0.06770807 -0.07983977 -0.18880247 -0.052102074
-0.20533234 -0.054070577 -0.022940684 0.14929597 0.105593264 -0.0614367 -0.17130329 -0.09474005
-0.03842486 -0.16971679 0.045881566 0.1696391 0.1348631 -0.09775287 -0.057619378 0.23497717
-0.037739187 -0.21168764 -0.002069607 0.011983726 -0.087564096 -0.025585385 -0.19220264 0.07258376
-0.22363271 0.08112355 0.08722101 -0.19944184 -0.1133184 0.022669666 0.05612642 0.0345999
-0.10117864 0.01874144 -0.15378127 0.077741295 -0.029242253 -0.2498282 0.0650699 -0.048303325
0.16457085 -0.29395905 -0.08345445 0.046448734 0.101921864 -0.06824552 -0.18296371 -0.182197
-0.23407331 0.1297239 -0.26648793 -0.15895098 0.06349561 0.1288949 -0.26623294 -0.013341564
-0.031559672 0.21632822 -0.077220075 0.04003672 -0.08042676 0.15033239 -0.08409127 -0.11446753
00000000: b188 013e 4cf4 fe3b 4f8b 76be dac5 0b3e
00000010: 304d 66be 70f0 503e 4a28 2d3e 2dfe dc3d
00000020: ea9c d7bd f2ff 60bd 4485 83be fdf7 073e
00000030: 6d51 3ebd b875 ea3d 633d 23be 9126 693e
00000040: 86de b93d 271b 01be 59cf 8c3b 8d91 6dbe
00000050: ef30 5ebe 52d9 62be 67a6 0abe 8d34 863d
00000060: 050c d0bd dddb 10be 8bb3 d63d f3c3 abbc
00000070: dc1f 33be e900 83bd 31da f9bd 04bb 4c3d
00000080: 2fcd d83d be52 403e d3b2 61be c38f aebd
00000090: e54e ec3d 7555 03bd 647e 403e 938c 4b3c
000000a0: 7f7b 913d 4958 4ebe c651 673e ffe9 37be
000000b0: 935c 5d3d 1539 08be ffd5 4d3e 5c36 5f3c
000000c0: ec26 a93d 4f30 ffbd db2e a43d c690 9d3c
000000d0: 4ed6 5a3e bfe6 6e3e f0b2 923c d1e4 133d
000000e0: 9616 bb3d 5e3c 97bd 12b9 7ebd 7636 5ebe
000000f0: a6f4 33be f6ea 07be 8402 823d 6b6e 613d
00000100: 235f 123d cc94 103d 728b 1bbe 7fb1 30be
00000110: ef25 8c3e 4a50 56be ad84 d53c 8eb0 203e
00000120: b088 ed3d bda9 d1bd 5330 46be e8b0 5d3e
00000130: 510e 683d dd1e 5c3e e187 293e a62e 023d
00000140: 482a cc3d 8480 3bbb 1157 f3bd a67b ea3c
00000150: e04a 4a3e 539e 493e dad4 893e 2586 093e
00000160: 0439 5f3e a170 9ebd d971 03be 157b 04bc
00000170: e0a6 f9bd 72fa 82bd 095b a5bd 3e33 533e
00000180: 9dd6 81bc 29a1 693e 9a26 3bbe 7914 6ebe
00000190: 9309 0a3d ef64 403d 77ca c2bd a549 f4bd
000001a0: af7c 893d 9676 413c ec56 01bd ad0f f53d
000001b0: 9780 1fbe fcda 3d3e ec85 5dbe 3c0d 33be
000001c0: 075f d53c 0154 143e 4a83 6fbd 4177 3dbe
000001d0: 2621 85bd 4968 0abe 823e 9abd e672 32bd
000001e0: f746 683d be35 e2bd e441 29be e704 f1bd
000001f0: c929 4abe d314 71be 3b93 5c3d 94ba 923d
00000200: 8916 983d f946 3abd 03fa 0abe c729 11be
00000210: 2b6d f03d 3912 82be 47a1 a43d 7760 40be
00000220: eb9c a1be 1cd1 2dbe 6462 b53d c25d f13d
00000230: a3ea 25bb f6cf 173e 3d77 123e b44e a83d
00000240: 456a 4c3e 688e cdbd edd5 ca3d 94b6 8c3e
00000250: ad62 c0bd a574 703e d952 cabd b467 b1bd
00000260: c5b1 973d 4455 163e 1433 e93d 4a0b 0abe
00000270: dddd b53d 834c fc3d a4e7 0a3d 1e9f 8dbe
00000280: 6ac0 9d3e e6d9 ddbc 7fb4 54bd 273c 963e
00000290: 57fe 4cbd a7a2 733e 23c0 713e ed18 1dbe
000002a0: 1db9 09be 5c4b f6bd f34f 333e b203 a63e
000002b0: cdd7 403d 262d 90bd 922f 9dbd 65dc c7bd
000002c0: 52ca a33e 4a02 5dbd ecd8 c4bd 5457 9cbd
000002d0: 6c51 b13d 2a0e 5d3d 70b7 093e 85bd 333b
000002e0: 8a17 5f3c 3b29 9e3d 0e98 62bd 983a 14be
000002f0: 87aa 8a3d 0983 a3bd 6f55 41be fc68 55bd
00000300: a442 52be 1c79 5dbd 1aee bbbc 0be1 183e
00000310: 4841 d83d 0da5 7bbd 216a 2fbe 1207 c2bd
00000320: 6363 1dbd 3dca 2dbe 4fee 3b3d dfb5 2d3e
00000330: 8d19 0a3e a832 c8bd 4c02 6cbd db9d 703e
00000340: 6894 1abd a5c4 58be 3ea2 07bb 6457 443c
00000350: ce54 b3bd 7198 d1bc c5d0 44be cba6 943d
00000360: f9ff 64be 1b24 a63d eea0 b23d 7b3a 4cbe
00000370: 7a13 e8bd bcb5 b93c d1e4 653d a0b8 0d3d
00000380: bf36 cfbd a687 993c d678 1dbe d436 9f3d
00000390: 738d efbc f7d2 7fbe 5e43 853d b5d9 45bd
000003a0: 4385 283e cd81 96be 2bea aabd 0741 3e3d
000003b0: 69bc d03d 4fc4 8bbd d75a 3bbe da91 3abe
000003c0: eab0 6fbe 58d6 043e 1b71 88be 0cc4 22be
000003d0: fd09 823d 06fd 033e af4f 88be 9396 5abc
000003e0: b744 01bd 2585 5d3e 8f25 9ebd 8bfd 233d
000003f0: c9b6 a4bd bcf0 193e 0b38 acbd f46d eabd

rnn.bias_ih_l3 f4 [18]
0.05880334 -0.17345189 -0.049002934 -0.24988964 -0.43933856 0.026903035 -0.105822 0.03770307
0.02871858 0.008110259 -0.14365393 -0.18235101 -0.3098984 -0.034657072 0.008515262 -0.18260705
0.023835514 -0.08563514
00000000: c5db 703d 5f9d 31be 4db7 48bd 12e3 7fbe
00000010: fcf0 e0be c163 dc3c 34b9 d8bd 896e 1a3d
00000020: 3a43 eb3c e4e0 043c 041a 13be 39ba 3abe
00000030: 01ab 9ebe 93f4 0dbd 9983 0b3c 58fd 3abe
00000040: b242 c33c 7a61 afbd

rnn.bias_hh_l3 f4 [18]
-0.1981928 0.10162705 0.08438403 -0.15138534 -0.29470995 0.025580917 -0.22933763 0.043540377
0.021434993 -0.19022828 -0.47815362 0.174974 -0.276597 -0.18476644 0.08067079 -0.118443474
-0.123920776 0.13306364
00000000: 0ef3 4abe d821 d03d 89d1 ac3d c204 1bbe
00000010: 39e4 96be 128f d13c 7cd7 6abe 6557 323d
00000020: 7098 af3c 34cb 42be 8dd0 f4be 622c 333e
00000030: 1f9e 8dbe 6a33 3dbe ba36 a53d 7e92 f2bd
00000040: 2dca fdbd d641 083e
