saved_models/single_REN_checkpoint.pt (torch, 56078 bytes, 19 tensors)

x0 f4 [1, 18]
000000 50 af 33 3c 8f f3 0b 3c b8 d0 51 3c 17 ad d6 3b
       0.010967091 0.008541956 0.01280611 0.0065513956
000010 b4 af 8d bb 17 9f 0b bb 12 93 de 3b 22 6a 94 3b
       -0.004323924 -0.0021304542 0.0067924345 0.0045292536
000020 35 82 6f bc 1c de d7 3a 76 20 07 bb 95 38 9d bb
       -0.014618446 0.0016469392 -0.0020618713 -0.004798005
000030 04 d5 9b bc 2f f4 bf 3c 38 82 e8 bb 59 77 8d bb
       -0.019022472 0.023431865 -0.0070956014 -0.004317206
000040 b2 87 24 3c de bc ae 3b
       0.010042118 0.0053325733

X f4 [54, 54]
000000 aa 4c 5c bf 3a 3c 31 bf 0d 99 a7 be 91 0d 77 bf
       -0.8605448 -0.69232523 -0.32733956 -0.96505076
000010 0a ab eb be 6b ef c5 3f 54 07 f8 bc d3 f4 08 3f
       -0.4602893 1.546369 -0.030276932 0.5349857
000020 63 fe 4a be 5c 77 ee 3e 17 ab 8a bf e1 19 19 3f
       -0.19823603 0.4657544 -1.0833462 0.59805113
000030 e7 4d cd be 76 d1 eb be 12 ee 5e bf 93 b1 39 be
       -0.40098497 -0.46058244 -0.87082016 -0.18134145
000040 1e ef d8 be 21 77 66 bf 7c 78 9c 3d a6 80 8d 3e
       -0.42369932 -0.90025526 0.07640168 0.27637213
000050 f1 62 65 3f 5d 29 a5 3d 31 77 24 be d8 09 b9 bf
       0.896041 0.0806453 -0.16061093 -1.4456129
000060 63 03 55 3f 7f 69 07 3e 04 1a 9b bf a6 4b ef 3d
       0.8320829 0.13223837 -1.2117314 0.11684351
000070 00 56 dd 3f eb 76 1b bf 40 a0 1a bf 64 d7 f2 be
       1.729187 -0.6072833 -0.6040077 -0.47429955
000080 b8 63 44 3f 90 4f f0 3e 66 7b 95 bf c0 e1 6d 3f
       0.7671466 0.469357 -1.1678283 0.9292259
000090 dc f4 4c bf 84 3a fb 3d ea 16 4b bf dd 22 aa 3d
       -0.80061126 0.1226702 -0.7933184 0.08307431
0000a0 4b 79 e2 bd ba 99 82 bf 26 be 19 bf 36 6d 14 be
       -0.11058291 -1.0203164 -0.6005577 -0.14494786
0000b0 80 ba 73 3f b4 95 f1 3d 34 03 d0 3b 1a fd 36 bf
       0.9520645 0.11796132 0.006348038 -0.7147995
0000c0 ee 67 38 3f 34 9e 5b bf c5 91 a0 bf bc f8 39 bf
       0.72033584 -0.85788274 -1.2544485 -0.72645164
0000d0 3a c7 af 3e 96 e5 e2 3d a8 13 81 3f 46 14 48 bf
       0.34331685 0.11078946 1.0084124 -0.78155935
0000e0 65 0b 08 3e 65 fc d4 bf 83 32 28 bf 38 7b 8b bf
       0.13285597 -1.6639525 -0.65702075 -1.0896978
0000f0 59 2a 9e bd 92 54 82 3f 0a a9 17 3f f1 c6 a2 3f
       -0.07722921 1.0182059 0.5924231 1.2716962
000100 ff 64 ab 3e 5d ad 06 be ad cd 00 bf f4 62 7f be
       0.3347549 -0.1315207 -0.50313836 -0.24940091
000110 81 39 ff bd a5 59 07 3f b9 6a 46 bd e1 7f f5 3e
       -0.1246214 0.5287116 -0.048441622 0.47949126
000120 58 5d 4a bf 9a 33 ce 3e e1 32 93 3d 14 e8 8a 3e
       -0.7904868 0.40273744 0.07187439 0.27130187
000130 c4 22 14 3d 28 80 0d 3f d6 30 50 bf 2a 96 26 3f
       0.036165968 0.55273676 -0.8132452 0.6507288
000140 76 e7 98 3e 1e 99 ba be 7a 2c 78 bd da 73 2e bf
       0.2986409 -0.36444944 -0.06058929 -0.68145525
000150 6e 21 bf 3e bc b7 95 3f 79 cb ad 3f cb fc 29 3e
       0.37330192 1.1696696 1.357772 0.16600339
000160 44 12 67 3f c6 6f cf 3f 21 fb 25 bf 46 83 0c bf
       0.90262246 1.6205986 -0.6483632 -0.5488781
000170 3e 8e 32 3f f5 90 46 3f d6 50 99 3f bb ad 3d 3f
       0.69748294 0.77564937 1.1977794 0.74093217
000180 9c 32 06 3f 36 c2 95 bf 97 a8 8e 3e f7 50 23 be
       0.52420974 -1.1699893 0.27863 -0.15948854
000190 89 92 a3 be 8e 92 30 3f 2b cd 24 3e 65 e8 07 3f
       -0.31947735 0.68973625 0.1609389 0.5308898
0001a0 3f a5 18 3f 61 5d b1 3e 22 b1 08 3e e1 33 51 bf
       0.59627146 0.34641555 0.13348821 -0.81719786
0001b0 98 36 3f 3f 17 2e 9a 3f a8 a7 2a be a0 d5 89 3f
       0.7469268 1.2045316 -0.16665518 1.0768318
0001c0 d8 ca 00 bf dc c0 8f bf 9a 30 b1 bd cd 78 c2 3e
       -0.50309515 -1.1230731 -0.08651848 0.3798279
0001d0 3c e4 6a 3e 43 f5 53 3f 3a 78 4f 3e f8 8a e8 be
       0.22938627 0.82796115 0.20260707 -0.45418525
0001e0 d2 54 bf 3f 75 43 e8 be 9a af d1 3e b0 4e f1 3d
       1.494776 -0.45363966 0.40954286 0.117825866
0001f0 e4 8a 34 bf 6a 8b ec 3d 3c 03 1f bf 8c 3a 0e 3f
       -0.7052443 0.115500286 -0.6211431 0.55558085
000200 e0 6b ac 3c 76 dd de 3e f2 c5 97 be 4c 2c 80 bf
       0.021047533 0.43528336 -0.29643208 -1.0013518
000210 3d 1f dc bd 52 91 05 3f ca 21 87 be 24 0b 28 bf
       -0.10748146 0.52174866 -0.26392967 -0.65642
000220 0c 78 94 3e 6a 2c bc be 50 41 9a 3e 9d 99 d6 3e
       0.28997838 -0.36752635 0.30127954 0.41914073
000230 d1 fe a8 3e 0e 2c de be ba d8 36 3e 11 4c 2c 3f
       0.3300691 -0.43392986 0.17856112 0.6730357
000240 c5 62 d6 be 84 94 cf bf a4 14 88 be 6e fe 81 bc
       -0.4187223 -1.6217198 -0.26578248 -0.015868392
000250 20 0a 8b 3f 0b 86 a5 3f e6 8f 1e bf 2c e6 13 c0
       1.0862465 1.2931532 -0.6193832 -2.3109236
000260 dc da 6e be 9c e1 09 be ca e4 81 bf ec 99 dd be
       -0.23325676 -0.1346497 -1.0147946 -0.43281496
000270 e7 81 04 be 67 2c 4c 3d 89 9c f1 be a2 98 0a 3d
       -0.12940179 0.049847033 -0.4718974 0.03383697
000280 60 69 95 3e 2f 32 10 3f 22 65 b5 bf b5 51 99 3e
       0.29181957 0.56326574 -1.4171488 0.2994515
000290 57 15 ef be fb ad 4b 3e 4a 2c 5b 3c be 4a 50 bf
       -0.46695969 0.19890587 0.013377259 -0.8136405
0002a0 f1 2e 06 3f 38 b5 01 bf f5 0d 89 bd 94 e7 58 3e
       0.52415377 -0.5066714 -0.06692115 0.2118209
0002b0 35 8b 0d bc 0d b2 3e bd 32 65 a2 3c 19 5b b4 bf
       -0.008639147 -0.04655652 0.019823644 -1.4090301
0002c0 c2 67 5c bf a8 ba a4 bf f5 a4 99 bf 67 9c 16 3f
       -0.8609582 -1.2869463 -1.2003466 0.588324
0002d0 83 1f 0f bf b8 60 24 3f ee fe 34 bf a5 76 db 3e
       -0.5590746 0.6421008 -0.7070149 0.42863956
0002e0 88 cb 46 3f 61 b4 ef 3e a0 b5 b1 3b 15 df 0f 3d
       0.77654314 0.46817306 0.0054232627 0.035124857
0002f0 2d 19 5a 3f c0 47 56 3c b0 27 53 bf 59 85 05 be
       0.85194665 0.01307863 -0.82482433 -0.1303915
000300 60 cd c3 3d 34 fe 32 bf 1e 2c 0f bf bc 79 cf be
       0.095606565 -0.69919133 -0.5592669 -0.40522563
000310 06 f8 bf be cf 0d e8 be c8 bf a6 bf 73 77 03 3e
       -0.37493914 -0.45323035 -1.3027277 0.12838535
000320 5b ae d1 bf 7f 07 94 be 8e dd 5e 3f ca 84 3b bf
       -1.6381334 -0.2891197 0.87056816 -0.73249495
000330 ed c1 ac bd e4 46 c8 3f 7b 82 6c 3f 53 f3 03 be
       -0.08435426 1.5646634 0.923866 -0.1288579
000340 a1 27 1b bf 30 f9 ca 3f 0d 78 00 3e eb 5d 51 3e
       -0.60607344 1.5857296 0.12545796 0.20445983
000350 29 17 43 bf 10 b8 20 bf c9 70 85 bf a7 53 61 3f
       -0.76207215 -0.6278086 -1.0425044 0.8801827
000360 a0 c3 49 3e 0c bb 09 3f db 13 84 bc 76 af 91 be
       0.19703531 0.53801036 -0.01612275 -0.2845418
000370 e1 e0 d3 be 72 8f 58 bf fb 7b 9b bf 06 fa 65 3e
       -0.41382506 -0.8459388 -1.2147211 0.22458658
000380 c7 7c d9 3e 2c 95 1d 3f f0 84 fc 3e c3 69 8b be
       0.4247801 0.61555743 0.49320173 -0.27229127
000390 c3 74 87 3f 0a 7c 39 be 97 0b de 3e ec 5f 86 3d
       1.0582508 -0.18113723 0.43368217 0.065612644
0003a0 fe 13 af bf 05 36 e4 3f a4 78 b7 be 6d 41 ba 3d
       -1.3677976 1.7828985 -0.3583423 0.0909451
0003b0 63 b1 4a bd 74 e8 c4 3e 0f 26 04 be 3a 33 fe 3f
       -0.049485575 0.38458598 -0.12905143 1.9859383
0003c0 a6 9a e9 be 0e 30 38 3f c7 d0 1f 3d 18 60 cc be
       -0.456258 0.71948326 0.039017465 -0.39917064
0003d0 d9 18 5e bf f1 1e 59 3d 90 a0 87 3f 62 e2 be be
       -0.86756665 0.053008024 1.0595875 -0.3728209
0003e0 13 0e 66 bf 1e 8a e0 bd f4 2c a5 3f fe 64 2c bf
       -0.89865226 -0.10963844 1.2904344 -0.673416
0003f0 84 9c 1b bf 3b 9a 96 3c b5 bb 01 bf 1d 1b 9e 3d
       -0.607857 0.01838409 -0.50677043 0.07720015

Y f4 [18, 18]
000000 3d 79 ed 3b 35 cc 14 be c8 98 a3 3e 9c 19 6e 3f
       0.0072471187 -0.14531024 0.319525 0.93007827
000010 3d 35 4a bf 40 fd f1 3e 96 20 05 3f 11 0b 38 bf
       -0.78987485 0.47263527 0.5200285 -0.71891886
000020 6d ba 27 bf cc 22 19 3f 57 1f af bd 13 c0 cd 3e
       -0.6551884 0.5981872 -0.085508995 0.40185603
000030 e5 d8 b4 be 58 3a 85 3e 9a a4 1f bf d3 0f 03 3f
       -0.35321727 0.26021075 -0.6236054 0.5119602
000040 f4 b0 e7 3f 97 4e 94 3f 1b 88 15 3e a6 3b 57 3c
       1.8100877 1.1586484 0.14602701 0.01313678
000050 96 c3 ea 3e b4 42 14 3e 41 63 21 bf 9c 95 8e 3e
       0.45852345 0.1447857 -0.63042074 0.27848518
000060 dc 39 d7 3e 03 35 0e bf 24 51 65 3f 5f 9d 6f 3f
       0.4203633 -0.5554964 0.89576936 0.93599504
000070 a9 29 ba be 5d 29 a0 3f ca b2 9f bf b8 95 2c 3f
       -0.3635991 1.2512623 -1.2476437 0.6741595
000080 55 70 aa be 47 71 f5 3e cf a5 14 3f 8a 65 2f bd
       -0.33288828 0.47937986 0.58065504 -0.042821445
000090 cc c9 a0 be 28 48 e9 be 4b 72 44 3c 5c 78 0c bf
       -0.3140396 -0.45562863 0.01199014 -0.54871154
0000a0 04 90 6b bf 14 8f 61 bf fb 23 67 be f8 71 16 3f
       -0.92016625 -0.88108945 -0.22572319 0.5876765
0000b0 cd 30 0d 3f 78 9b 1f 3e 1f c1 d9 be ad ce 13 3f
       0.5515259 0.1558665 -0.42530152 0.5773724
0000c0 9e 3c 79 3f 71 e6 d5 3e d5 c1 73 bf ea 10 6d 3f
       0.9735812 0.41777375 -0.9521764 0.92603934
0000d0 3d aa 3d 3f 46 a9 09 bf 66 11 67 bf e4 67 22 be
       0.7408789 -0.53773916 -0.9026092 -0.15859944
0000e0 17 c7 0a 3f ff 5e 83 3c 86 20 51 be 02 16 30 bf
       0.54210037 0.016036509 -0.20422563 -0.6878358
0000f0 66 2a 7a 3f 18 74 6c bf 1e 89 3b be 67 9f 3a bd
       0.97720945 -0.92364645 -0.18314025 -0.045562174
000100 0c 5f be bf 4b 2b bf 3e fb 27 10 3e 14 ef 8b 3e
       -1.4872756 0.37337717 0.14077751 0.2733084
000110 fb 73 ce be fd 5a 1e 3f 27 ce 8d 3f 9a 1b 4f bf
       -0.4032286 0.6185759 1.1078538 -0.8090149
000120 0c 47 4c 3f bb 65 26 3f 5f ee 6e 3f de ed 64 3e
       0.7979591 0.6499898 0.93332475 0.22356364
000130 06 2d aa bc f8 71 f1 be 2e d6 a0 3e 2f ba 03 3d
       -0.020773422 -0.47157264 0.31413406 0.03215998
000140 5d 79 52 bf 23 d6 51 be 3d 63 81 3e ec 2e e9 bc
       -0.82216436 -0.20491843 0.25271025 -0.028464757
000150 fc ac 94 bf 7b da 1b bf a7 8f 5e 3f 26 90 74 bf
       -1.1615291 -0.6088025 0.86937946 -0.95532453
000160 a0 0b 04 be bd c1 ec bd 09 11 eb be 96 0e 93 be
       -0.1289506 -0.1156039 -0.45911434 -0.28722066
000170 9d 7b 63 3f b4 50 2a 3f a2 fd f7 3e fd 99 9b 3a
       0.88860494 0.66529393 0.48435694 0.0011871454
000180 ac 5e 95 bf 77 88 3e 3f 29 73 75 3c 37 38 44 3f
       -1.1669517 0.7442698 0.01498107 0.7664828
000190 7f f6 7b bf 1f 82 48 3f af 2c 84 3e 69 bc 70 3e
       -0.98423 0.7832355 0.2581534 0.23509373
0001a0 04 3f 22 be 86 20 00 3f 8b eb 61 3f 15 7d 0f bf
       -0.15844351 0.50049627 0.88250035 -0.56050235
0001b0 96 b4 06 bf 98 ec d5 be e5 5b 56 3e 16 d5 70 bf
       -0.526193 -0.4178207 0.20933492 -0.94075143
0001c0 3d 1f 95 be 0e 6f 96 3f 54 18 40 3c d8 21 2f 3f
       -0.29125395 1.1752641 0.01172455 0.68411016
0001d0 02 24 bc 3e c8 65 13 3f 98 8d 7b be f0 ef 11 3e
       0.36746222 0.5757718 -0.24565732 0.14251685
0001e0 08 49 91 bf 4d a3 b5 3e 89 27 32 be 16 7c 1b 3f
       -1.1350412 0.3547615 -0.17397894 0.60736215
0001f0 a9 2b 22 3f 72 df 84 bf e2 da 39 3f f3 e4 0a 3f
       0.6334787 -1.038069 0.72599614 0.542556
000200 3e 32 12 bf 28 d6 69 3f df e1 d0 bc 2f a8 3f bf
       -0.57107913 0.913424 -0.025498329 -0.74866
000210 0e e9 2e bf bd 5c eb b9 73 57 76 bf 50 46 1b bf
       -0.68324363 -0.00044891788 -0.96227187 -0.60654163
000220 38 bb 0c 3f 02 2e bc be b8 0c fc 3d b3 91 3c bf
       0.54973173 -0.3675385 0.123071134 -0.7365982
000230 9d b2 2a 3f fb a3 d8 be cc 4d ef be 96 ef 3f bd
       0.6667879 -0.42312607 -0.46739042 -0.046859346
000240 b7 7d 28 3f 7c 25 67 bf cb b3 10 bf 17 fc 2f 3e
       0.65816826 -0.9029157 -0.5652434 0.17186008
000250 6f 3e 54 3f 55 c8 35 bb 5a 08 bf be d7 50 77 3f
       0.82907766 -0.0027737815 -0.3731106 0.96607727
000260 94 69 48 bc 4e 88 a4 3e ac d4 98 bf 0e 40 75 bf
       -0.012232203 0.32135242 -1.1939902 -0.95800865
000270 90 4d bd 3e 85 60 ba be 5b db 5b 3e 02 f4 4d bf
       0.36973238 -0.36401764 0.21470396 -0.8045045
000280 00 4b 28 bc 6b 45 e4 be f8 f5 15 bf ff 69 6e bf
       -0.010271788 -0.44584212 -0.58578444 -0.9313049
000290 f5 23 05 be a2 09 a6 3c 41 08 48 3e fb e0 44 bf
       -0.13001998 0.020268265 0.19534399 -0.7690579
0002a0 ac d8 0a bf 5a 08 1c 3f 82 a2 9f be 56 61 26 bc
       -0.54236865 0.60950243 -0.3117867 -0.010155043
0002b0 f8 2e b2 3d 4d f6 13 3e c1 d2 f9 3e 8d e4 81 bf
       0.08700365 0.14449425 0.48793605 -1.0147873
0002c0 64 d6 3e bf f0 20 19 3e 57 a2 24 3f c1 da 78 be
       -0.74545884 0.14953971 0.6431021 -0.24302198
0002d0 39 13 a0 3d b5 b0 c0 3e bb c7 dd 3e dc 90 c1 3f
       0.078161664 0.37634817 0.43316445 1.5122333
0002e0 af dd 6f be e9 c6 82 3f 2c e6 71 3e 70 15 14 bf
       -0.2342441 1.0216953 0.2362296 -0.5784521
0002f0 d8 b5 9b 3f f3 76 9d bd ca c2 ca 3b 6b f9 ec 3e
       1.2164869 -0.076887034 0.0061877714 0.4628404
000300 e1 ef e3 be 75 6b 20 3e 51 42 8d be 88 84 0e 3f
       -0.4451895 0.15665992 -0.27589658 0.55670977
000310 cc 85 56 3f d9 f3 ca bf c5 9d c1 be 3b c5 a0 bf
       0.8379791 -1.5855666 -0.3781568 -1.256019
000320 43 e4 10 bf 2c 02 bb be aa 43 d2 3c d7 4c 46 bf
       -0.565983 -0.36525095 0.02566703 -0.77461
000330 1e 39 0b be 32 5a ba 3e e6 37 75 3f b7 2a 01 be
       -0.13596007 0.3639694 0.9578842 -0.1261395
000340 b5 07 ee be 2a e8 8a 3c 3c 77 d0 3e 29 40 4c be
       -0.46490255 0.016956408 0.4071597 -0.1994635
000350 b0 0a 8f 3f 1e 5a 4d bf f4 7d c0 3d 3e d8 82 bf
       1.1175137 -0.8021563 0.09399024 -1.0222242
000360 97 00 b5 3e 9d b0 9d 3f 1a 13 7c bf cc 01 14 be
       0.35352013 1.2319523 -0.98466647 -0.1445381
000370 5c 9d 97 3f 32 7c 65 be 64 e4 90 3f 50 9e c9 bd
       1.1844897 -0.22410658 1.1319699 -0.09844649
000380 36 fb c4 be 41 d5 f8 be c1 ab e0 3e 00 cc cf be
       -0.3847291 -0.486002 0.43881038 -0.40585327
000390 86 98 73 bc d7 9c 2f bf 7f ce ec 3e 38 51 12 bf
       -0.014867907 -0.68598694 0.46251294 -0.5715518
0003a0 87 e0 1e bf 25 c8 6c 3f 8d f9 93 be 68 e2 2a bf
       -0.6206135 0.92492896 -0.2890133 -0.6675172
0003b0 ff 51 d6 be f0 dd 81 be 36 6d 1c 3f 21 f0 75 be
       -0.41859433 -0.25364637 0.6110414 -0.24017383
0003c0 bd c7 b2 be 15 c0 3b 3f c1 f8 b3 3e df 5c 84 3f
       -0.34918013 0.7333997 0.35150722 1.0340842
0003d0 9a 21 39 be 4f 33 40 3e 5e da 2c 3f 6a 1e be 3b
       -0.18079224 0.18769573 0.675207 0.0058019655
0003e0 b6 91 87 be e9 24 48 be df 0e 62 3f 2f 49 3e bf
       -0.26478356 -0.1954533 0.8830394 -0.7433042
0003f0 e2 5b 1c 3f 3e 79 b2 3e 79 c0 6f 3f 3f 0d d4 3e
       0.610777 0.34858125 0.93653065 0.41416356

Z3 f4 [2, 1]
000000 6f fe a5 3b 7c 87 0d bb
       0.0050657312 -0.0021595648

D12 f4 [18, 1]
000000 c9 4d 5c 3f 04 43 ec bf 0f 77 ec 3e 0a c5 64 bf
       0.8605619 -1.8457952 0.46184584 -0.8936316
000010 be e8 8e bf 9d c1 3a 3d c8 c0 54 3f 63 6a 3a bf
       -1.1164777 0.0455948 0.8310666 -0.72818583
000020 7d d0 f7 bf e0 b3 ee 3f 74 6d 47 be 2f 9c ed 3d
       -1.93605 1.8648643 -0.19475347 0.11602055
000030 bb 93 31 c0 4c 5e ea 3d 00 33 88 3f 71 8a fc be
       -2.7746418 0.11443767 1.0640564 -0.49324372
000040 b5 be 1a 3e 99 22 8f 3f
       0.15111811 1.1182433

B2 f4 [18, 1]
000000 c8 99 8f bf 9f 60 2c bf 04 5f 5b 3e bd 65 6a bf
       -1.1218805 -0.6733493 0.21422964 -0.9156149
000010 36 bc 6f 3e 6a ad 43 bf e3 8a da be d9 15 fe 3e
       0.2341164 -0.76436484 -0.42684087 0.49626043
000020 d1 55 4e 3f 49 fb b6 3f a0 5d a4 bf b9 c0 61 3f
       0.80599695 1.4295436 -1.2841072 0.88184696
000030 c3 ac 20 bd 9b 8e f2 be e7 2b 3e bf 18 d4 7f bf
       -0.03922726 -0.47374424 -0.7428574 -0.99933004
000040 17 59 6e bf 52 1e 0c bf
       -0.9310469 -0.54733765

C2 f4 [3, 18]
000000 4d d6 93 bf 96 6b e8 3e 75 98 2c 3f 44 2b 6e bd
       -1.1549774 0.45394582 0.6742013 -0.05814673
000010 c5 15 05 bf 2f 11 1b be 01 4c 32 bf c1 8a 23 be
       -0.5198634 -0.15143274 -0.6964722 -0.15970899
000020 c2 9e 43 3f ce ef 37 3d 20 90 94 bf fe d0 61 3f
       0.7641412 0.04490643 -1.1606483 0.8820952
000030 54 98 01 bf b3 e9 7e bf 3d ce b3 bf a1 7c 91 be
       -0.5062306 -0.99575347 -1.4047314 -0.28415397
000040 d9 8d 9f bf 62 58 af bf a1 d0 c5 be 2a d6 22 be
       -1.2465163 -1.3698847 -0.38635734 -0.1590201
000050 e8 09 4c bf a9 11 28 3f ca d9 b3 be a9 98 ff 3e
       -0.79702616 0.6565195 -0.35127097 0.49921158
000060 72 91 67 bf b7 a6 64 3e 03 b3 30 bf 5c d5 86 bf
       -0.90456307 0.22329222 -0.6902315 -1.0533862
000070 4f 9d 93 be f7 b7 44 3d 88 0c c1 3e bb 90 8b bf
       -0.28830954 0.048027005 0.37704873 -1.0903543
000080 76 1a 1f be b6 ac f6 be 95 86 64 be 43 69 76 be
       -0.15537438 -0.48178643 -0.22316964 -0.24063592
000090 ae 23 95 be ad 5c 89 3d 8f cf 55 bf f4 32 50 3e
       -0.29128784 0.067071296 -0.83519834 0.20331937
0000a0 51 1c 4a 3c 7c 94 e5 be d3 f9 ba be 9f 92 e6 be
       0.012335853 -0.44839847 -0.36518726 -0.45033738
0000b0 67 00 3d be ca d4 89 bf b8 6f c1 3e 09 9e b1 be
       -0.18457185 -1.0768063 0.37780547 -0.34690884
0000c0 5e c9 03 3f 5d c8 27 bf de 66 0f 3f 46 0a 86 be
       0.51479137 -0.65540105 0.5601634 -0.26179713
0000d0 07 67 a8 be 35 db 47 be
       -0.32891104 -0.19517215

exp_avg f4 [54, 54]
000000 08 55 01 3b 6a 19 be 3b 0d da f6 bb 36 8d 8f 3b
       0.001973452 0.0058013694 -0.007533318 0.0043808473
000010 d1 2f c4 3b 3a a2 f4 ba f2 a9 e9 39 77 78 cc ba
       0.0059871455 -0.001866407 0.00044567842 -0.0015599866
000020 cb c8 17 bc a1 5f 2c bb fe b1 17 bb e1 67 c4 b8
       -0.009264181 -0.0026302116 -0.0023146863 -9.365357e-05
000030 52 6d 34 3c 85 a7 6e 3a 5a 6b 06 ba 6a 33 b9 3b
       0.011012392 0.0009103942 -0.0005127691 0.005651881
000040 08 89 29 3c f5 68 59 3c 20 dd a1 bb 0d 20 85 3b
       0.010347612 0.013269653 -0.00493969 0.0040626586
000050 0c 65 1e 3c be 67 8e 3b 46 44 9e 3b 01 9c ae bb
       0.009667646 0.004345863 0.004829916 -0.0053286557
000060 01 28 a7 bb 5c fd aa 3c 8a c0 51 3b 9a a2 ae bb
       -0.0051012044 0.020872764 0.0032005631 -0.005329442
000070 1d d1 3c 3b 72 91 c6 bb 6f 69 bd 3b 71 c5 c1 bb
       0.0028811165 -0.006059819 0.005780391 -0.0059134294
000080 fc 1c f2 bb bb 2c b1 3b 3f 5d b3 bb 41 7b c6 bb
       -0.007388709 0.0054069436 -0.0054737623 -0.0060571735
000090 28 21 60 3b 23 41 c9 bb b9 5b 14 3c e8 b0 99 bb
       0.003419945 -0.006141798 0.0090550715 -0.0046902783
0000a0 39 af ed bb be cc 80 3b ca 41 eb 3a d5 a1 93 3a
       -0.007253554 0.003930657 0.0017948684 0.001126344
0000b0 c9 94 21 3c 51 90 12 3b 4f 24 96 3b 01 57 3f bb
       0.009862133 0.0022363851 0.004581965 -0.0029196145
0000c0 e7 b7 48 bc b6 87 9a 3b 00 f0 32 3b 97 52 eb ba
       -0.012250877 0.004715885 0.0027303696 -0.0017953691
0000d0 19 35 ef bb 77 25 6e bc bc a0 84 bb 4e 2a 87 ba
       -0.007300031 -0.0145352995 -0.0040474813 -0.001031229
0000e0 49 1a 9e b8 95 c9 42 ba e0 d7 bf b9 f4 07 15 ba
       -7.538923e-05 -0.0007430551 -0.00036591198 -0.0005685084
0000f0 18 14 dd ba 14 1c 7d 3a d4 07 06 3b f0 3a 0e 3a
       -0.001686695 0.0009655368 0.0020451443 0.00054256525
000100 e9 20 09 ba 03 0e aa 3a e4 c3 fc ba 3a 6a 99 bb
       -0.0005231039 0.0012974147 -0.0019284454 -0.0046818526
000110 b0 22 e0 ba fb 66 7b bb 51 df a1 bb 3e 61 37 bb
       -0.0017100181 -0.0038360942 -0.0049399515 -0.0027981545
000120 f8 fc 20 3b 6e 7f 25 bb 66 fd 08 bb f2 a0 2d bb
       0.0024564844 -0.0025252956 -0.002090299 -0.0026493636
000130 3a 91 24 bb 26 f6 43 3b 13 99 23 3b e5 d7 85 bb
       -0.0025110976 0.0029901355 0.0024963066 -0.0040845745
000140 04 7c 99 ba 7c 22 cf 3a 36 c5 b3 37 27 37 e4 3a
       -0.0011709933 0.0015803124 2.1430296e-05 0.0017411456
000150 e3 81 a5 ba ad 9c 83 3a ff a0 17 3b b9 14 ed ba
       -0.001262721 0.00100412 0.0023136733 -0.0018087841
000160 d4 bf f9 3a 8b b7 fd 3a 39 5f 08 3c b4 61 9b 39
       0.0019054362 0.0019357068 0.008323484 0.00029636698
000170 e7 0a 14 3b 3f 2a 4b b9 00 17 af ba 8f f3 bb 3a
       0.0022589506 -0.00019375327 -0.0013358295 0.0014339554
000180 cb 8b 48 3b 6c 35 d6 ba 02 e7 b1 ba 5e 9a 43 ba
       0.0030600901 -0.0016342825 -0.0013572874 -0.0007461662
000190 77 7d 0b 3b 0e dc 44 bb 19 32 97 39 98 b1 08 3c
       0.00212845 -0.003003839 0.0002883829 0.008343123
0001a0 b4 a2 69 3b 3f 9c b4 3b 3c b7 d8 3b 15 73 2e 3a
       0.0035649957 0.00551179 0.00661364 0.0006654722
0001b0 5d f8 20 3b 40 0e 86 ba 64 80 e7 3a f1 c6 d8 b9
       0.0024562099 -0.0010227636 0.0017662165 -0.00041346953
0001c0 3f e5 b3 ba 59 04 55 3a 1e 3a 49 3a 2f 4e 01 b9
       -0.0013724937 0.0008125953 0.00076762016 -0.00012331524
0001d0 3b af 9c 3a 4c f2 6c 38 44 1b b0 3a a3 0e 9c ba
       0.0011954078 5.649244e-05 0.001343586 -0.0011906218
0001e0 65 e0 ee ba b0 16 2e 3b bc c7 91 3a d2 6b 95 3a
       -0.0018224834 0.0026563816 0.0011122148 0.0011399931
0001f0 b7 bd 8e 39 1a 88 de ba 91 86 c6 b9 8d 9a 59 3a
       0.000272257 -0.0016977817 -0.00037865763 0.0008300923
000200 e1 e2 f9 ba 1d 76 78 3a 10 de 3b 3a 0b ab 4d ba
       -0.0019064808 0.00094780495 0.0007166574 -0.0007845617
000210 ef b4 69 ba ef 85 b9 bb f3 4f b4 3a 98 fb 68 ba
       -0.0008915206 -0.005661718 0.0013756737 -0.0008887588
000220 f0 75 b8 ba d3 f0 70 3a c2 f7 f4 3a f0 d0 a8 ba
       -0.0014073234 0.0009191159 0.001868956 -0.0012879651
000230 26 bc be ba 71 44 c8 3a 8f 14 c3 ba 5b 22 f6 ba
       -0.0014551922 0.0015279186 -0.0014883446 -0.0018778549
000240 78 31 20 bc 1e 31 40 3a 2c 3e 5e bb 6d 5e 86 39
       -0.009777419 0.0007331538 -0.003391157 0.00025628824
000250 2e d4 18 3b 7e 04 2b bb dd 13 51 bb b1 9f 9d 3a
       0.0023319828 -0.0026095207 -0.0031902709 0.0012025741
000260 9c 6e 06 39 e7 3e 64 3a ba 1d 4e bb b5 c4 80 3b
       0.00012820441 0.0008706883 -0.0031450824 0.0039296993
000270 7d 48 ad 3a ec fb 26 bc 1b 39 94 bb 8c 58 c5 bb
       0.0013220456 -0.010191899 -0.004523409 -0.0060225185
000280 96 08 cf bb c2 e5 a0 3a 6e 49 83 3a 9c c0 0b 3c
       -0.006318162 0.0012275504 0.0010016391 0.008529808
000290 60 2f 32 bc fc f1 d2 3b f9 27 0e 3c f1 e0 66 bb
       -0.010875553 0.006437538 0.008676522 -0.003522929
0002a0 15 83 07 ba e4 b1 2b bb cd 63 6b bc db 41 65 bb
       -0.0005169374 -0.002619856 -0.014367056 -0.003498188
0002b0 83 b3 ab bb df 01 d3 3a 85 58 8a 3c a9 dd 2b ba
       -0.0052399053 0.001609858 0.016887913 -0.0006556162
0002c0 c8 32 92 ba 8b 7f e0 3b e2 a6 71 3c 6a b7 a1 3c
       -0.001115405 0.006851142 0.014749261 0.019740779
0002d0 5f c1 1c bc 1d 76 0d 3c c1 6f 60 3c 4a 8f 0d 3c
       -0.009567588 0.008634117 0.013698519 0.00864012
0002e0 f9 17 fe 3b 45 7e 0e bc f0 a0 01 bc 68 10 df 3c
       0.0077543226 -0.008697097 -0.007911906 0.027229503
0002f0 ab a1 71 3b 3e a5 16 bc 81 77 21 3b 9b 04 08 bc
       0.0036870043 -0.00919467 0.002463788 -0.008301879
000300 0a 91 01 3c ea f4 fa bb 25 ec 13 bc 10 6e fe 3b
       0.007908115 -0.0076585906 -0.009028469 0.0077645853
000310 ff 22 fd bb a7 26 07 bc 89 0d 0f bb 4c 32 e6 bb
       -0.007725119 -0.0082489615 -0.0021828136 -0.007025039
000320 61 40 00 3c 34 cc aa bb f5 fe d7 bb cf 6c 18 3b
       0.007827849 -0.005212331 -0.0065916725 0.0023258214
000330 c6 53 d5 b9 c6 49 1d 3b 28 a2 3f 3c 00 02 2e 3b
       -0.00040688942 0.0024000271 0.011696376 0.0026551485
000340 84 00 8a 3b f1 ce b3 ba 6e 84 61 bc b4 e2 0e bb
       0.0042114872 -0.001371829 -0.013764484 -0.0021802606
000350 fc d9 19 b7 d6 03 e6 bb 46 63 5a bc 3c 0d 86 bc
       -9.170264e-06 -0.0070195002 -0.013329333 -0.016363733
000360 51 96 02 3b e2 2d 6f 3a a6 1f 61 ba 3f 47 53 3a
       0.0019926021 0.00091239635 -0.0008587785 0.0008059628
000370 67 9a 20 3a fb 40 6b b7 34 3c 08 3a 96 58 16 ba
       0.00061265234 -1.4022221e-05 0.0005196959 -0.0005735246
000380 4a 3f ee ba cd 0d 47 ba 46 35 07 38 78 32 34 ba
       -0.0018176821 -0.0007593304 3.2236123e-05 -0.00068739755
000390 d2 8b f4 3a 1c 41 cc 3a 03 f9 0d 3a 5b 65 03 3b
       0.0018657392 0.0015583369 0.0005415829 0.0020049426
0003a0 bb 09 46 3b ad ea 17 3b 76 d3 11 bb 84 0c 1f 3b
       0.0030218202 0.002318065 -0.0022251285 0.0024268935
0003b0 6f ac e4 39 38 3f 1b 3b 8a 34 18 3b 0b 89 18 bb
       0.00043616022 0.0023688804 0.0023224675 -0.0023275043
0003c0 de 3f 06 bb e2 89 9e 3b a0 06 00 3b eb 9c 49 bb
       -0.0020484845 0.0048382143 0.0019535199 -0.0030763696
0003d0 70 1e d8 39 17 cc f5 ba aa ec 41 3b 34 2c 24 bb
       0.00041221408 -0.001875284 0.0029590526 -0.0025050761
0003e0 41 33 4a bb b4 44 49 3b 4e ad 49 bb 52 1e 4a bb
       -0.0030853304 0.0030711116 -0.0030773464 -0.0030840826
0003f0 81 7b ff bb 19 d7 57 ba 53 25 1d ba d1 dd 1d ba
       -0.0077967052 -0.0008233651 -0.00059946364 -0.0006022128

exp_avg_sq f4 [54, 54]
000000 3e 53 af 3a 71 b6 c0 38 34 e9 fe 38 af db c0 38
       0.0013376249 9.189256e-05 0.00012155101 9.196193e-05
000010 69 39 e9 38 87 21 a3 38 a7 ba b2 38 d7 dc c4 38
       0.00011120999 7.7786906e-05 8.522468e-05 9.387143e-05
000020 f2 76 57 39 6c 8c 9b 39 67 e0 df 38 c7 9c 55 3a
       0.00020548308 0.00029668526 0.00010675267 0.0008148667
000030 94 a9 ed 38 32 dc 04 39 c2 d5 0f 38 37 b6 17 3a
       0.00011332627 0.0001267053 3.4292934e-05 0.0005787345
000040 f7 20 7d 3a 3e 1a 5d 39 7d a5 9f 3a 1b 81 9f 3a
       0.0009656096 0.00021085978 0.0012180057 0.0012169214
000050 e1 de a7 39 81 79 9a 3a 8e 0f b6 3a c0 17 bb 3a
       0.0003201878 0.0011785479 0.0013890134 0.0014274046
000060 8e 59 b8 3a 03 67 8f 3a c3 c3 b4 3a b0 b6 b4 3a
       0.0014064775 0.0010940734 0.0013791252 0.0013787355
000070 03 4a e4 3a 99 6c 87 3a 39 10 a6 3a 96 59 a5 3a
       0.0017417077 0.0010332047 0.001266963 0.00126152
000080 a9 26 91 3a ee 47 a9 3a ab 6c a9 3a ca d7 a8 3a
       0.0011074144 0.0012915113 0.0012926062 0.0012881693
000090 90 63 02 3b 5c 94 1c 39 3e 64 6f 39 92 72 e4 38
       0.001989577 0.00014932588 0.0002283016 0.000108932276
0000a0 15 c9 2c 39 fc f7 1c 39 ae 68 a0 37 ad 85 1c 39
       0.00016478107 0.000149697 1.9122232e-05 0.00014927117
0000b0 c8 9d 83 39 70 64 d5 39 04 6f 56 39 dc f1 ab 3a
       0.00025103823 0.00040701358 0.00020449987 0.0013118344
0000c0 82 fa 1f 39 d7 73 8a 39 d8 2d ce 38 3d 6c 16 3a
       0.00015256743 0.00026407719 9.8313845e-05 0.00057381747
0000d0 95 8f 85 3a 4b ed 83 39 04 62 a2 39 db 1d 17 37
       0.0010189886 0.00025163064 0.00030972075 9.007253e-06
0000e0 2e 35 0b 37 d0 a9 08 37 65 08 33 37 aa 8d 80 37
       8.2974275e-06 8.145769e-06 1.0671186e-05 1.5324757e-05
0000f0 52 3e b5 36 e4 24 36 37 29 9c 89 37 7b 46 00 38
       5.4014754e-06 1.0856635e-05 1.640439e-05 3.0583218e-05
000100 d2 29 1e 38 37 d0 08 39 32 5c d1 36 56 11 fe 38
       3.7709084e-05 0.00013047537 6.2394183e-06 0.00012114893
000110 44 1f 02 38 5a 7a f3 38 8a 13 22 39 d3 a4 5c 37
       3.1023534e-05 0.00011609933 0.00015456803 1.3151398e-05
000120 89 7f 8f 38 ca f0 8d 38 0c c0 bd 37 6c 03 5a 38
       6.842527e-05 6.7682544e-05 2.2619985e-05 5.1978437e-05
000130 10 6d 90 38 71 33 a4 38 8e 2b 95 38 3c 77 ff 38
       6.8867696e-05 7.829711e-05 7.112986e-05 0.00012181557
000140 a6 08 34 38 ca 22 45 38 a2 c3 99 39 ff f2 2c 39
       4.29234e-05 4.700086e-05 0.00029328192 0.00016493721
000150 41 65 1e 38 1c 0a 45 38 cf 1a 0d 38 e9 04 17 38
       3.7764436e-05 4.6977875e-05 3.3641987e-05 3.600578e-05
000160 31 08 18 38 0d 63 51 38 50 8c 1a 39 0f d6 10 36
       3.6247253e-05 4.992173e-05 0.00014738855 2.158227e-06
000170 ca 14 35 37 da 48 6e 36 06 3c 55 36 6b 50 b7 36
       1.0793281e-05 3.5507169e-06 3.1774412e-06 5.463187e-06
000180 9b 71 d2 37 86 0b fd 35 3f 75 db 36 5a b6 1d 37
       2.5086852e-05 1.8853323e-06 6.540358e-06 9.400386e-06
000190 ee a1 b1 37 f0 0a f8 37 26 1c 10 36 53 b7 48 39
       2.1175449e-05 2.9568997e-05 2.1474057e-06 0.0001914178
0001a0 e2 97 d8 37 47 e1 b7 38 30 24 c8 38 52 ba d3 36
       2.5819932e-05 8.768081e-05 9.5434836e-05 6.3099806e-06
0001b0 5c 58 65 38 1a 3d 26 35 5a 51 24 36 76 dd b9 34
       5.4680146e-05 6.1928733e-07 2.4485257e-06 3.462007e-07
0001c0 5d 5f 8d 35 bc 12 e0 35 52 ec bf 36 d1 e2 4a 35
       1.0533073e-06 1.6694753e-06 5.719755e-06 7.5580925e-07
0001d0 3a 44 5b 35 16 7c ab 35 0f db 4a 37 f3 19 14 37
       8.168314e-07 1.2776607e-06 1.2091142e-05 8.827529e-06
0001e0 50 2a 70 35 88 f3 8c 38 2c 8c 0d 37 52 9e b4 37
       8.946854e-07 6.7210814e-05 8.436891e-06 2.1531396e-05
0001f0 e8 70 a2 37 14 07 a7 35 c8 e1 e2 35 69 95 e0 35
       1.9364481e-05 1.244453e-06 1.6904023e-06 1.6732785e-06
000200 9c 3b 8a 36 21 27 85 36 20 e6 87 36 4b 91 51 36
       4.11966e-06 3.968264e-06 4.0501036e-06 3.1227999e-06
000210 5d f3 97 36 e7 46 25 38 8a c0 24 37 55 af 1b 37
       4.528482e-06 3.94051e-05 9.819991e-06 9.279543e-06
000220 7a 78 a0 37 95 89 29 37 61 e4 04 37 b2 82 9a 36
       1.9129588e-05 1.0105218e-05 7.920987e-06 4.6047726e-06
000230 19 56 f6 36 0b 71 08 37 2e ca 06 37 00 8e 3d 36
       7.3413944e-06 8.132552e-06 8.034096e-06 2.824585e-06
000240 33 b1 50 39 5d 45 45 36 eb 61 81 37 b7 6c 0a 36
       0.00019902438 2.9395662e-06 1.5423595e-05 2.0626883e-06
000250 e5 98 ad 36 f8 9b 03 37 2e eb 8c 37 b6 4a 1e 36
       5.173601e-06 7.844523e-06 1.6798815e-05 2.3587322e-06
000260 e7 7a 25 36 dc 09 dc 36 d9 9e 03 38 92 99 41 38
       2.4658455e-06 6.5576587e-06 3.1380772e-05 4.615781e-05
000270 a4 ae 64 36 8f c8 5d 39 27 73 1c 38 60 0b a7 38
       3.4076302e-06 0.00021150916 3.7300542e-05 7.965299e-05
000280 27 be 9c 38 1a 27 7c 36 55 c3 9f 3b e5 be cc 39
       7.474078e-05 3.7573686e-06 0.0048755803 0.0003905214
000290 42 d3 34 3a 5e cf 53 39 8e 75 b3 39 e3 ab c1 39
       0.0006897935 0.00020199778 0.00034229126 0.00036939894
0002a0 5f 67 fc 38 46 5a b1 39 1f f6 08 3a eb 90 53 3a
       0.00012035551 0.0003382733 0.0005224663 0.00080706057
0002b0 ea f5 40 3a 38 fd 3b 3b 4f 9a b8 39 2e a2 56 3b
       0.0007360863 0.0028684866 0.00035210184 0.0032750475
0002c0 a4 f6 14 3a 5a af 9c 3a ae 6e f1 3a e4 c6 fa 39
       0.0005682504 0.0011954114 0.0018419826 0.000478319
0002d0 da c4 58 3b f2 e9 58 3b cf 06 92 3a 50 f4 27 3b
       0.0033076317 0.0033098427 0.0011140945 0.00256278
0002e0 dc cf 45 3b ef 32 4d 3b da 9f 44 3b e2 16 2c 3b
       0.0030183708 0.0031310876 0.0030002506 0.0026258756
0002f0 29 c8 42 3b 70 a7 3d 3b f8 b1 66 3b b9 32 28 3b
       0.0029721356 0.0028938912 0.0035201292 0.0025664999
000300 2c af 4f 3b 94 2b 48 3b 87 e0 49 3b b2 2d 50 3b
       0.0031690104 0.0030543553 0.0030803995 0.0031765518
000310 38 ee 4f 3b 63 d4 40 3b 5f b0 1d 39 4d 04 88 39
       0.0031727683 0.0029423467 0.0001503839 0.00025943146
000320 8a 67 1a 3a 4b 0c 0d 39 f9 df 23 39 49 01 cb 38
       0.00058900623 0.00013451387 0.00015628328 9.680034e-05
000330 c3 12 d4 39 14 a2 33 39 b8 2f cf 39 2e ec e8 39
       0.0004044977 0.00017131149 0.0003951767 0.00044426456
000340 a6 81 1a 39 f5 d5 55 3a 9e 1a 8b 39 d2 84 24 3b
       0.00014734882 0.0008157187 0.00026531977 0.002510358
000350 9a 61 24 39 48 fb 15 39 59 8d f5 39 f2 43 c4 39
       0.00015676618 0.00014303357 0.00046835354 0.00037434656
000360 72 89 de 39 c0 87 16 37 1a 13 1b 38 90 04 66 37
       0.00042445544 8.9723035e-06 3.697267e-05 1.3710131e-05
000370 45 ec 23 37 79 be 06 37 bb 5c d4 38 f9 13 b8 36
       9.770568e-06 8.03137e-06 0.0001012622 5.4859524e-06
000380 5d d3 c4 37 04 e4 15 38 8f 6b 82 38 b3 d1 9b 38
       2.3463444e-05 3.5736724e-05 6.2189174e-05 7.4300355e-05
000390 70 6e 31 37 f3 30 0f 3a 05 4c 83 38 73 eb 8f 39
       1.0575735e-05 0.0005462311 6.2607265e-05 0.0002745051
0003a0 c9 d9 93 39 fd 54 97 37 e3 83 68 39 c5 8e 6a 39
       0.00028200287 1.8040178e-05 0.00022174376 0.00022369165
0003b0 0e 5f 4d 39 b1 49 49 39 b0 bc 60 39 3f 9a 6a 39
       0.00019585734 0.00019196306 0.00021432596 0.0002237344
0003c0 97 7c 55 39 71 c2 09 39 e8 31 7d 39 c7 92 76 39
       0.00020359676 0.00013137773 0.00024146552 0.00023515067
0003d0 e7 13 5c 39 56 48 57 39 df 6e 95 39 b0 b2 8a 39
       0.00020988249 0.00020530945 0.000285021 0.00026454544
0003e0 cf 01 9b 39 af 7c 93 39 36 8a 93 39 50 93 74 39
       0.0002956525 0.0002813092 0.00028141 0.00023324532
0003f0 7c 0b 73 3a b9 cb c1 36 91 be 62 38 f2 52 15 37
       0.00092714257 5.7755647e-06 5.4060078e-05 8.900404e-06

exp_avg f4 [18, 18]
000000 00 00 00 00 b0 f4 cd 3a 08 ba 06 bb bb 9a a5 3a
       0.0 0.0015713181 -0.002055766 0.0012634614
000010 69 1a d2 3a b6 50 4a ba 32 e4 94 b9 73 94 00 ba
       0.0016029599 -0.00077177153 -0.00028398779 -0.0004904933
000020 05 e4 33 bb 4e ac 41 ba c5 85 8f ba d1 69 d3 39
       -0.0027449143 -0.0007388041 -0.0010949901 0.00040323896
000030 1e c4 52 3b ae 5f d7 b9 c0 f8 96 b9 01 1a 94 3a
       0.0032160352 -0.00041079283 -0.00028795563 0.0011299254
000040 c7 48 2a 3b 98 d8 72 3b b0 f4 cd ba 00 00 00 00
       0.002598332 0.003705537 -0.0015713181 0.0
000050 8b 1c ec b9 51 42 39 b8 4d f7 9a 39 54 03 dd b9
       -0.00045034694 -4.41692e-05 0.00029557422 -0.00042154884
000060 2a ee 1f ba 59 e8 55 39 ce 69 dc 38 fd b0 12 39
       -0.0006100858 0.00020399819 0.00010510125 0.00013989578
000070 e0 d9 ff b9 1a 4c 20 3a fd c6 88 38 7d 5b e3 ba
       -0.0004879972 0.00061148556 6.52205e-05 -0.0017345991
000080 66 e4 31 ba 7e 17 95 ba 4a 74 9a ba 4e bf b3 b8
       -0.0006786048 -0.0011374799 -0.0011783924 -8.5710184e-05
000090 08 ba 06 3b 8b 1c ec 39 00 00 00 00 cb 82 b9 39
       0.002055766 0.00045034694 0.0 0.00035383398
0000a0 02 37 c6 38 ce 30 ba 39 11 e4 36 3a 89 92 cf b9
       9.451622e-05 0.00035513047 0.00069767336 -0.00039591294
0000b0 8f d1 6f ba 84 7c c8 b9 b3 01 a9 39 ea 1f 31 ba
       -0.0009148353 -0.00038239744 0.00032235458 -0.000675677
0000c0 40 08 4f 3a a0 5e 07 3b bf 6e 54 3a f6 06 e0 3a
       0.00078976527 0.0020655766 0.00081036607 0.0017091918
0000d0 15 a1 13 3b f0 12 86 3a bb 9a a5 ba 51 42 39 38
       0.0022526432 0.0010229032 -0.0012634614 4.41692e-05
0000e0 cb 82 b9 b9 00 00 00 00 28 5d 2c 39 df 5b 88 b9
       -0.00035383398 0.0 0.00016437902 -0.0002600839
0000f0 47 9b e2 b9 d4 45 1a 39 15 9c 0a 39 47 86 f0 38
       -0.0004322177 0.00014712597 0.0001321885 0.00011469103
000100 ce 4c dc b9 69 a0 e6 39 f2 4e df 37 20 1b b4 ba
       -0.00042018894 0.00043988533 2.6620433e-05 -0.0013740994
000110 2c 87 1c ba 17 8f 47 ba 6d fa 6e ba 7f a3 49 b8
       -0.000597107 -0.00076125696 -0.0009116296 -4.8074402e-05
000120 69 1a d2 ba 4d f7 9a b9 02 37 c6 b8 28 5d 2c b9
       -0.0016029599 -0.00029557422 -9.451622e-05 -0.00016437902
000130 00 00 00 00 ab 51 bf b9 7e bd 24 ba 4f e9 92 39
       0.0 -0.00036491206 -0.000628434 0.00028021118
000140 63 29 10 3a 36 7d 7e 39 33 1f b0 b9 01 b3 22 3a
       0.0005499331 0.00024269972 -0.0003359258 0.0006206483
000150 62 c5 f7 b9 50 6c e0 ba c2 ae 3a ba ba 66 ae ba
       -0.00047258573 -0.0017122123 -0.0007121378 -0.0013305761
000160 38 c2 d7 ba 17 75 19 ba b6 50 4a 3a 54 03 dd 39
       -0.001646108 -0.00058539346 0.00077177153 0.00042154884
000170 ce 30 ba b9 df 5b 88 39 ab 51 bf 39 00 00 00 00
       -0.00035513047 0.0002600839 0.00036491206 0.0
000180 06 30 a8 39 0c 48 42 b9 06 4f 36 ba de b5 54 b9
       0.00032079237 -0.00018528121 -0.00069545244 -0.00020285646
000190 cd 93 b2 38 bb 99 86 b9 f2 e4 4a 3a e9 05 60 3a
       8.5152315e-05 -0.0002567301 0.0007739804 0.00085458026
0001a0 c5 cd 9e 39 ff 84 55 3a cf 8f 9d 3a 2f 60 80 3a
       0.0003028942 0.0008145123 0.0012021008 0.000979429
0001b0 32 e4 94 39 2a ee 1f 3a 11 e4 36 ba 47 9b e2 39
       0.00028398779 0.0006100858 -0.00069767336 0.0004322177
0001c0 7e bd 24 3a 06 30 a8 b9 00 00 00 00 e7 5c 6f b9
       0.000628434 -0.00032079237 0.0 -0.00022827425
0001d0 a2 c3 89 ba 1a d9 96 b9 b4 24 68 b9 d9 9e a9 38
       -0.0010510574 -0.00028771983 -0.00022138917 8.088136e-05
0001e0 5e 53 98 3a 40 27 f5 38 74 c0 c0 b7 fd 65 05 3a
       0.0011621525 0.00011689821 -2.2977802e-05 0.0005088745
0001f0 6e 3d 90 3a 3d db b9 3a 73 94 00 3a 59 e8 55 b9
       0.0011004636 0.0014179718 0.0004904933 -0.00020399819
000200 89 92 cf 39 d4 45 1a b9 4f e9 92 b9 0c 48 42 39
       0.00039591294 -0.00014712597 -0.00028021118 0.00018528121
000210 e7 5c 6f 39 00 00 00 00 55 ac b0 39 f2 c9 48 38
       0.00022827425 0.0 0.00033697733 4.7871792e-05
000220 a0 06 b8 39 46 2a 86 b9 77 b3 f1 b9 f9 6f 18 3a
       0.0003510015 -0.00025589968 -0.00046100814 0.0005815025
000230 b6 e2 5b 39 b4 6b 59 39 54 b9 eb b7 0b 22 e5 b9
       0.00020969924 0.00020734855 -2.8100483e-05 -0.00043703648
000240 05 e4 33 3b ce 69 dc b8 8f d1 6f 3a 15 9c 0a b9
       0.0027449143 -0.00010510125 0.0009148353 -0.0001321885
000250 63 29 10 ba 06 4f 36 3a a2 c3 89 3a 55 ac b0 b9
       -0.0005499331 0.00069545244 0.0010510574 -0.00033697733
000260 00 00 00 00 37 1d 1a b9 d2 b8 84 3a 40 f5 8d ba
       0.0 -0.00014697468 0.0010125882 -0.0010830536
000270 ab 58 ce b9 5f a2 41 3b bf 7c 9f 3a 38 eb e3 3a
       -0.00039357445 0.0029546244 0.0012167915 0.0017388826
000280 f0 8b e5 3a 6b 30 90 b9 4e ac 41 3a fd b0 12 b9
       0.0017513018 -0.00027501895 0.0007388041 -0.00013989578
000290 84 7c c8 39 47 86 f0 b8 36 7d 7e b9 de b5 54 39
       0.00038239744 -0.00011469103 -0.00024269972 0.00020285646
0002a0 1a d9 96 39 f2 c9 48 b8 37 1d 1a 39 00 00 00 00
       0.00028771983 -4.7871792e-05 0.00014697468 0.0
0002b0 16 d3 a8 39 f0 be 82 b9 27 bc 98 b9 59 20 46 3a
       0.00032200728 -0.00024937792 -0.00029131884 0.0007557921
0002c0 88 4d a1 39 f5 20 9d 39 2e 95 aa 39 dc e9 90 b9
       0.00030766078 0.00029969928 0.00032536074 -0.0002764006
0002d0 c5 85 8f 3a e0 d9 ff 39 b3 01 a9 b9 ce 4c dc 39
       0.0010949901 0.0004879972 -0.00032235458 0.00042018894
0002e0 33 1f b0 39 cd 93 b2 b8 b4 24 68 39 a0 06 b8 b9
       0.0003359258 -8.5152315e-05 0.00022138917 -0.0003510015
0002f0 d2 b8 84 ba 16 d3 a8 b9 00 00 00 00 4e d4 7d b9
       -0.0010125882 -0.00032200728 0.0 -0.0002420705
000300 28 8e 7a 3a e4 09 7a 3a 4d fc ad 39 ad 57 8a 3a
       0.0009557926 0.0009538217 0.0003318511 0.0010554694
000310 b9 19 cc 3a f6 c3 9e 3a d1 69 d3 b9 1a 4c 20 ba
       0.0015571631 0.0012112844 -0.00040323896 -0.00061148556
000320 ea 1f 31 3a 69 a0 e6 b9 01 b3 22 ba bb 99 86 39
       0.000675677 -0.00043988533 -0.0006206483 0.0002567301
000330 d9 9e a9 b8 46 2a 86 39 40 f5 8d 3a f0 be 82 39
       -8.088136e-05 0.00025589968 0.0010830536 0.00024937792
000340 4e d4 7d 39 00 00 00 00 e9 a7 a2 ba c2 bf ea b9
       0.0002420705 0.0 -0.001240966 -0.0004477483
000350 83 ae d3 b8 dd 60 40 ba 9a c0 a5 ba 38 0a c5 ba
       -0.000100937694 -0.00073386525 -0.0012645901 -0.0015032953
000360 1e c4 52 bb fd c6 88 b8 40 08 4f ba f2 4e df b7
       -0.0032160352 -6.52205e-05 -0.00078976527 -2.6620433e-05
000370 62 c5 f7 39 f2 e4 4a ba 5e 53 98 ba 77 b3 f1 39
       0.00047258573 -0.0007739804 -0.0011621525 0.00046100814
000380 ab 58 ce 39 27 bc 98 39 28 8e 7a ba e9 a7 a2 3a
       0.00039357445 0.00029131884 -0.0009557926 0.001240966
000390 00 00 00 00 c6 57 5b bb d8 a7 b7 ba 01 10 10 bb
       0.0 -0.0033469065 -0.0014011813 -0.0021982195
0003a0 70 1f 20 bb d2 03 06 b9 ae 5f d7 39 7d 5b e3 3a
       -0.00244328 -0.00012780659 0.00041079283 0.0017345991
0003b0 a0 5e 07 bb 20 1b b4 3a 50 6c e0 3a e9 05 60 ba
       -0.0020655766 0.0013740994 0.0017122123 -0.00085458026
0003c0 40 27 f5 b8 f9 6f 18 ba 5f a2 41 bb 59 20 46 ba
       -0.00011689821 -0.0005815025 -0.0029546244 -0.0007557921
0003d0 e4 09 7a ba c2 bf ea 39 c6 57 5b 3b 00 00 00 00
       -0.0009538217 0.0004477483 0.0033469065 0.0
0003e0 73 64 86 b9 9a 4f b9 3a 40 5d 46 3b af c8 85 3b
       -0.00025633312 0.0014138103 0.0030267984 0.0040827612
0003f0 c0 f8 96 39 66 e4 31 3a bf 6e 54 ba 2c 87 1c 3a
       0.00028795563 0.0006786048 -0.00081036607 0.000597107

exp_avg_sq f4 [18, 18]
000000 00 00 00 00 26 93 79 37 49 53 21 38 44 57 f0 36
       0.0 1.4875817e-05 3.8462957e-05 7.1627164e-06
000010 a3 da 05 37 b3 22 74 36 a0 33 0f 38 28 4f 12 37
       7.978323e-06 3.637903e-06 3.4141936e-05 8.720708e-06
000020 16 24 b3 37 c9 61 ca 37 75 5d 51 37 46 0b 15 38
       2.1355267e-05 2.4125811e-05 1.247913e-05 3.5534867e-05
000030 da 9f 7c 37 d5 80 57 39 60 26 65 37 7c 62 4d 37
       1.5057589e-05 0.00020551991 1.36583985e-05 1.2241882e-05
000040 71 b3 b4 37 10 a4 a4 37 26 93 79 37 00 00 00 00
       2.1541231e-05 1.9626721e-05 1.4875817e-05 0.0
000050 d2 43 9c 34 df 89 41 34 da f6 80 34 a2 f0 cd 34
       2.910661e-07 1.8024683e-07 2.4021466e-07 3.835931e-07
000060 88 94 d0 35 bc 7d 0d 34 13 c1 59 34 fa 92 0b 35
       1.5540436e-06 1.317739e-07 2.027994e-07 5.1995414e-07
000070 36 38 12 36 d7 88 23 36 c9 39 e7 32 43 f6 5f 37
       2.1788414e-06 2.4368544e-06 2.6918217e-08 1.3349173e-05
000080 a2 44 05 36 13 4a ea 36 f8 76 ee 36 08 39 10 34
       1.9858494e-06 6.982367e-06 7.1068025e-06 1.3431793e-07
000090 49 53 21 38 d2 43 9c 34 00 00 00 00 d4 ef 55 35
       3.8462957e-05 2.910661e-07 0.0 7.969768e-07
0000a0 52 c6 67 35 fd ec b2 35 6c f6 0e 36 93 10 53 35
       8.63428e-07 1.3331006e-06 2.1303085e-06 7.8627744e-07
0000b0 53 29 c0 35 49 10 23 36 fe 15 aa 36 0b fe 31 37
       1.4317142e-06 2.4298372e-06 5.068955e-06 1.0609171e-05
0000c0 9f a3 df 34 29 bf ac 37 fb 13 80 36 03 4e 8c 37
       4.1656037e-07 2.0593014e-05 3.8170233e-06 1.6725628e-05
0000d0 33 75 ab 37 ae 39 bb 35 44 57 f0 36 df 89 41 34
       2.0439364e-05 1.3949373e-06 7.1627164e-06 1.8024683e-07
0000e0 d4 ef 55 35 00 00 00 00 a8 c5 8c 33 2b 41 4a 34
       7.969768e-07 0.0 6.5552115e-08 1.8836424e-07
0000f0 0b 70 ab 35 d9 7c d8 33 22 51 87 33 4c 2c 50 33
       1.2773102e-06 1.00809935e-07 6.301185e-08 4.846906e-08
000100 7d cf fc 35 66 ea 59 35 71 b2 10 34 c0 d0 62 37
       1.883585e-06 8.1179894e-07 1.3475962e-07 1.3519253e-05
000110 46 34 de 35 0b 64 3c 36 9b 0b 0c 36 09 67 ec 32
       1.6555502e-06 2.8072416e-06 2.086838e-06 2.7520871e-08
000120 a3 da 05 37 da f6 80 34 52 c6 67 35 a8 c5 8c 33
       7.978323e-06 2.4021466e-07 8.63428e-07 6.5552115e-08
000130 00 00 00 00 2b 4f 19 34 94 8a 05 36 8d 31 93 33
       0.0 1.4278037e-07 1.9899207e-06 6.854234e-08
000140 e0 52 a8 34 86 80 9e 33 b0 9b 08 36 56 2f 1f 35
       3.1352738e-07 7.3808266e-08 2.0356201e-06 5.9301e-07
000150 00 eb 75 34 b0 5b 93 37 e9 ca 0e 36 8b e4 94 36
       2.2902896e-07 1.756646e-05 2.1277758e-06 4.4373496e-06
000160 6f ac 84 36 6b 46 9c 34 b3 22 74 36 a2 f0 cd 34
       3.9539805e-06 2.91085e-07 3.637903e-06 3.835931e-07
000170 fd ec b2 35 2b 41 4a 34 2b 4f 19 34 00 00 00 00
       1.3331006e-06 1.8836424e-07 1.4278037e-07 0.0
000180 d8 99 15 36 1f ea 0e 34 a7 61 20 35 ee 63 a3 34
       2.229228e-06 1.3309953e-07 5.974675e-07 3.0433824e-07
000190 f6 d2 a4 35 32 26 92 34 84 e4 13 35 a3 d0 71 37
       1.228035e-06 2.722241e-07 5.50943e-07 1.4413296e-05
0001a0 60 ae d4 35 e3 d7 5c 36 82 7c 47 36 30 78 82 35
       1.5845981e-06 3.2908217e-06 2.9725784e-06 9.720734e-07
0001b0 a0 33 0f 38 88 94 d0 35 6c f6 0e 36 0b 70 ab 35
       3.4141936e-05 1.5540436e-06 2.1303085e-06 1.2773102e-06
0001c0 94 8a 05 36 d8 99 15 36 00 00 00 00 85 c4 f8 35
       1.9899207e-06 2.229228e-06 0.0 1.8534635e-06
0001d0 7a 77 36 36 c6 b1 b0 36 33 1a 7f 36 5e 68 9b 37
       2.7189658e-06 5.2659043e-06 3.801321e-06 1.852604e-05
0001e0 20 ff bc 35 70 64 df 36 74 1f 13 36 69 55 2e 37
       1.4081343e-06 6.6576104e-06 2.1923015e-06 1.0391094e-05
0001f0 61 17 85 37 be 98 2b 36 28 4f 12 37 bc 7d 0d 34
       1.5865722e-05 2.5569893e-06 8.720708e-06 1.317739e-07
000200 93 10 53 35 d9 7c d8 33 8d 31 93 33 1f ea 0e 34
       7.8627744e-07 1.00809935e-07 6.854234e-08 1.3309953e-07
000210 85 c4 f8 35 00 00 00 00 48 c4 1e 34 09 2d 01 34
       1.8534635e-06 0.0 1.4786303e-07 1.2030445e-07
000220 82 0b 04 36 e1 7d 61 35 8e d2 4d 34 0a 9c 7b 37
       1.9676231e-06 8.400221e-07 1.9168712e-07 1.49970965e-05
000230 7e 35 05 36 55 4a a5 36 90 48 87 36 38 e2 8f 34
       1.984968e-06 4.9260366e-06 4.031761e-06 2.6800421e-07
000240 16 24 b3 37 13 c1 59 34 53 29 c0 35 22 51 87 33
       2.1355267e-05 2.027994e-07 1.4317142e-06 6.301185e-08
000250 e0 52 a8 34 a7 61 20 35 7a 77 36 36 48 c4 1e 34
       3.1352738e-07 5.974675e-07 2.7189658e-06 1.4786303e-07
000260 00 00 00 00 c8 44 3e 34 85 3a 92 36 8e 68 40 36
       0.0 1.7720151e-07 4.3579516e-06 2.8671088e-06
000270 f1 2a 76 34 77 92 ec 37 92 65 86 36 fd fc 11 37
       2.2926157e-07 2.8201595e-05 4.0053355e-06 8.701577e-06
000280 7b f1 f7 36 8d 21 00 34 c9 61 ca 37 fa 92 0b 35
       7.3892857e-06 1.1933135e-07 2.4125811e-05 5.1995414e-07
000290 49 10 23 36 4c 2c 50 33 86 80 9e 33 ee 63 a3 34
       2.4298372e-06 4.846906e-08 7.3808266e-08 3.0433824e-07
0002a0 c6 b1 b0 36 09 2d 01 34 c8 44 3e 34 00 00 00 00
       5.2659043e-06 1.2030445e-07 1.7720151e-07 0.0
0002b0 5a 8d ec 36 ff bc e2 35 08 19 ed 34 16 fc 4e 38
       7.0498036e-06 1.6893317e-06 4.4162903e-07 4.9349e-05
0002c0 3f d3 c1 36 df e0 39 37 c2 c0 02 37 d8 7f 91 34
       5.7764405e-06 1.1079216e-05 7.793484e-06 2.7101373e-07
0002d0 75 5d 51 37 36 38 12 36 fe 15 aa 36 7d cf fc 35
       1.247913e-05 2.1788414e-06 5.068955e-06 1.883585e-06
0002e0 b0 9b 08 36 f6 d2 a4 35 33 1a 7f 36 82 0b 04 36
       2.0356201e-06 1.228035e-06 3.801321e-06 1.9676231e-06
0002f0 85 3a 92 36 5a 8d ec 36 00 00 00 00 ac 48 74 37
       4.3579516e-06 7.0498036e-06 0.0 1.4560454e-05
000300 b6 d4 0a 36 55 1a 6e 37 48 bd 89 35 06 88 fa 36
       2.0687417e-06 1.4192036e-05 1.0262384e-06 7.466416e-06
000310 17 b8 6d 37 ba 71 70 36 46 0b 15 38 d7 88 23 36
       1.4169163e-05 3.5828984e-06 3.5534867e-05 2.4368544e-06
000320 0b fe 31 37 66 ea 59 35 56 2f 1f 35 32 26 92 34
       1.0609171e-05 8.1179894e-07 5.9301e-07 2.722241e-07
000330 5e 68 9b 37 e1 7d 61 35 8e 68 40 36 ff bc e2 35
       1.852604e-05 8.400221e-07 2.8671088e-06 1.6893317e-06
000340 ac 48 74 37 00 00 00 00 2b 8c 42 36 05 b5 11 39
       1.4560454e-05 0.0 2.8989841e-06 0.00013895713
000350 e8 1b 67 37 cb d0 cf 37 ff 9b 86 37 76 21 72 36
       1.377517e-05 2.477355e-05 1.6046686e-05 3.6080287e-06
000360 da 9f 7c 37 c9 39 e7 32 9f a3 df 34 71 b2 10 34
       1.5057589e-05 2.6918217e-08 4.1656037e-07 1.3475962e-07
000370 00 eb 75 34 84 e4 13 35 20 ff bc 35 8e d2 4d 34
       2.2902896e-07 5.50943e-07 1.4081343e-06 1.9168712e-07
000380 f1 2a 76 34 08 19 ed 34 b6 d4 0a 36 2b 8c 42 36
       2.2926157e-07 4.4162903e-07 2.0687417e-06 2.8989841e-06
000390 00 00 00 00 79 d4 69 37 3a 25 1d 36 6c 42 dd 36
       0.0 1.3937352e-05 2.3416492e-06 6.5940458e-06
0003a0 3c 15 f4 36 ff 32 0a 34 d5 80 57 39 43 f6 5f 37
       7.2742387e-06 1.2870804e-07 0.00020551991 1.3349173e-05
0003b0 29 bf ac 37 c0 d0 62 37 b0 5b 93 37 a3 d0 71 37
       2.0593014e-05 1.3519253e-05 1.756646e-05 1.4413296e-05
0003c0 70 64 df 36 0a 9c 7b 37 77 92 ec 37 16 fc 4e 38
       6.6576104e-06 1.49970965e-05 2.8201595e-05 4.9349e-05
0003d0 55 1a 6e 37 05 b5 11 39 79 d4 69 37 00 00 00 00
       1.4192036e-05 0.00013895713 1.3937352e-05 0.0
0003e0 44 e4 b2 36 cb 57 a1 38 ed b5 0e 39 1f 3b e6 37
       5.331387e-06 7.693431e-05 0.00013609948 2.7445667e-05
0003f0 60 26 65 37 a2 44 05 36 fb 13 80 36 46 34 de 35
       1.36583985e-05 1.9858494e-06 3.8170233e-06 1.6555502e-06

exp_avg f4 [2, 1]
000000 78 6a 75 3f c5 61 11 3f
       0.95865583 0.5678981

exp_avg_sq f4 [2, 1]
000000 0f d2 ee 41 cd 15 51 41
       29.852568 13.067822

exp_avg f4 [18, 1]
000000 db 9d ca 3b f6 a8 86 bb 00 50 50 bd 00 48 31 ba
       0.0061833686 -0.004109497 -0.050857544 -0.0006762743
000010 d6 10 6c bb 65 35 b9 3b 5e 14 46 3b 31 52 a6 bd
       -0.0036020777 0.005652117 0.0030224542 -0.081211455
000020 e7 bb 61 bb 16 36 cf 3b 20 07 b2 bc 18 73 6f 3c
       -0.0034444274 0.006323586 -0.021731913 0.014614843
000030 fb ba 94 bb c7 3d 11 3c d6 c3 17 3c dc a3 ac bb
       -0.0045388914 0.0088648265 0.0092629995 -0.005268557
000040 66 2a c4 3b c0 b5 60 3b
       0.0059864996 0.003428802

exp_avg_sq f4 [18, 1]
000000 ad a2 8a 3b 38 ff 8a 3b ae 21 e7 3b bc 62 3b 3b
       0.0042308182 0.00424185 0.0070535755 0.0028592786
000010 8c da 82 3b 9f dc 97 3b f8 51 84 3b 18 39 9d 3c
       0.003993338 0.0046344544 0.0040380917 0.019192263
000020 e3 e2 80 3b e8 55 83 3b 55 dc af 3c 26 89 25 3c
       0.003933297 0.0040080436 0.021467367 0.0101034995
000030 db fd 87 3b c5 70 99 3b 68 ff 5a 3b 7d f5 85 3b
       0.004150135 0.0046826326 0.0033416394 0.0040881024
000040 82 5c 88 3b e8 8f fd 3b
       0.0041614184 0.007738102

exp_avg f4 [18, 1]
000000 9a 36 47 3d 5c cd ac bc 1c bd 2a 3d dc 48 87 bc
       0.048636056 -0.021094017 0.041684255 -0.016514234
000010 6b e0 f4 bc 8f 15 ca 3c aa a0 c3 3c dd ab a2 39
       -0.029892167 0.024668483 0.023880322 0.00031027096
000020 c5 60 f2 3c f2 de f5 3b 4d 7a cc 3c 83 ad ac bc
       0.029587159 0.007503384 0.024960661 -0.02107883
000030 02 05 1f bd 43 75 84 3d b4 22 f6 3c dc 9c a1 3c
       -0.038823135 0.064676784 0.030045845 0.019728117
000040 3f 5d 13 3c 9a 6b 32 bd
       0.0089944 -0.043559648

exp_avg_sq f4 [18, 1]
000000 ea 68 2e 3e a5 e5 7d 3b 7a ef fd 3b fd 19 2a 3b
       0.17032209 0.0038741615 0.007749495 0.0025955432
000010 21 31 a3 3b 5f b6 fc 3b bb 28 b4 3b 19 78 91 3b
       0.004980222 0.00771217 0.0054980195 0.0044393656
000020 cb bf 8b 3b 7b dc 3e 3c f6 d0 d7 3c 9c 79 73 3d
       0.004264807 0.011649246 0.026344758 0.059442148
000030 84 70 30 3b be c6 eb 3d 9c ec b6 3c 19 be 74 3d
       0.0026922533 0.115125164 0.022329621 0.059751604
000040 ac 90 81 3d b3 9c 57 3b
       0.06326422 0.0032899796

exp_avg f4 [3, 18]
000000 99 4e d7 bc 05 a8 b4 39 a6 55 c1 bb 29 3f 26 3b
       -0.026282595 0.0003445746 -0.0059001027 0.0025367236
000010 11 d1 d4 3b 7e 10 44 bc 96 2b 3b bc 76 55 11 3b
       0.006494649 -0.011966823 -0.011423966 0.0022176183
000020 f7 23 19 bb 33 fb fb 3a 85 a1 16 bc fd be 65 3c
       -0.0023367384 0.0019224643 -0.009193783 0.014022586
000030 af 41 a7 3b ce 59 c6 bc 34 e0 39 bc 52 16 8e bc
       0.0051042656 -0.024212744 -0.011344958 -0.017344628
000040 0a b1 8d bc 05 13 05 3c 96 e1 2a 3d af bb 31 3c
       -0.017296333 0.00812221 0.04171904 0.01084797
000050 cf 31 8e bb 0d 70 08 3c eb e9 be 3b a3 87 5b 3b
       -0.0043394337 0.008327496 0.005826225 0.0033497594
000060 50 79 26 3c 14 36 08 bc 9b c4 cf bc 25 cf 20 bc
       0.010160759 -0.0083136745 -0.025362303 -0.009815012
000070 e2 9c bc 3b 67 f2 2f bc 11 a7 b2 3c 3d 7b 14 3d
       0.0057560066 -0.010738946 0.02180818 0.03625034
000080 8b a4 89 3c 7d c8 ef 3c 5a 51 44 3d b8 03 c5 3c
       0.016802093 0.029270405 0.047929145 0.024049625
000090 19 0f d0 3c c9 4c ce 3b ce 25 be ba 0a 15 7c 3b
       0.025397824 0.0062957746 -0.0014507116 0.0038464689
0000a0 29 45 13 3b 3c 31 4d 3b bb 13 14 3c a0 7b 59 bb
       0.0022471643 0.0031309864 0.009037907 -0.0033185259
0000b0 be 32 19 bc 9e 86 ba bb 76 9d e8 3b 02 8f f9 bb
       -0.009350477 -0.005692317 0.007098849 -0.007615925
0000c0 b5 e6 03 3c 20 52 c8 3c 77 0f 0b 3c ce 3d 9b 3c
       0.00805061 0.024453223 0.008487574 0.01895037
0000d0 5a 3e c8 3c af e9 33 3c
       0.024443794 0.0109810075
